{
  "nodes": [
    {
      "op": "null", 
      "name": "data", 
      "inputs": []
    }, 
    {
      "op": "null", 
      "name": "convolution0_weight", 
      "attrs": {
        "kernel": "(3, 3)", 
        "num_filter": "64", 
        "pad": "(1, 1)", 
        "stride": "(1, 1)"
      }, 
      "inputs": []
    }, 
    {
      "op": "null", 
      "name": "convolution0_bias", 
      "attrs": {
        "kernel": "(3, 3)", 
        "num_filter": "64", 
        "pad": "(1, 1)", 
        "stride": "(1, 1)"
      }, 
      "inputs": []
    }, 
    {
      "op": "Convolution", 
      "name": "convolution0", 
      "attrs": {
        "kernel": "(3, 3)", 
        "num_filter": "64", 
        "pad": "(1, 1)", 
        "stride": "(1, 1)"
      }, 
      "inputs": [[0, 0, 0], [1, 0, 0], [2, 0, 0]]
    }, 
    {
      "op": "Pooling", 
      "name": "pooling0", 
      "attrs": {
        "kernel": "(2, 2)", 
        "pool_type": "max", 
        "stride": "(2, 2)"
      }, 
      "inputs": [[3, 0, 0]]
    }, 
    {
      "op": "null", 
      "name": "convolution1_weight", 
      "attrs": {
        "kernel": "(3, 3)", 
        "num_filter": "128", 
        "pad": "(1, 1)", 
        "stride": "(1, 1)"
      }, 
      "inputs": []
    }, 
    {
      "op": "null", 
      "name": "convolution1_bias", 
      "attrs": {
        "kernel": "(3, 3)", 
        "num_filter": "128", 
        "pad": "(1, 1)", 
        "stride": "(1, 1)"
      }, 
      "inputs": []
    }, 
    {
      "op": "Convolution", 
      "name": "convolution1", 
      "attrs": {
        "kernel": "(3, 3)", 
        "num_filter": "128", 
        "pad": "(1, 1)", 
        "stride": "(1, 1)"
      }, 
      "inputs": [[4, 0, 0], [5, 0, 0], [6, 0, 0]]
    }, 
    {
      "op": "Pooling", 
      "name": "pooling1", 
      "attrs": {
        "kernel": "(2, 2)", 
        "pool_type": "max", 
        "stride": "(2, 2)"
      }, 
      "inputs": [[7, 0, 0]]
    }, 
    {
      "op": "null", 
      "name": "convolution2_weight", 
      "attrs": {
        "kernel": "(3, 3)", 
        "num_filter": "256", 
        "pad": "(1, 1)", 
        "stride": "(1, 1)"
      }, 
      "inputs": []
    }, 
    {
      "op": "null", 
      "name": "convolution2_bias", 
      "attrs": {
        "kernel": "(3, 3)", 
        "num_filter": "256", 
        "pad": "(1, 1)", 
        "stride": "(1, 1)"
      }, 
      "inputs": []
    }, 
    {
      "op": "Convolution", 
      "name": "convolution2", 
      "attrs": {
        "kernel": "(3, 3)", 
        "num_filter": "256", 
        "pad": "(1, 1)", 
        "stride": "(1, 1)"
      }, 
      "inputs": [[8, 0, 0], [9, 0, 0], [10, 0, 0]]
    }, 
    {
      "op": "null", 
      "name": "convolution3_weight", 
      "attrs": {
        "kernel": "(3, 3)", 
        "num_filter": "512", 
        "pad": "(1, 1)", 
        "stride": "(1, 1)"
      }, 
      "inputs": []
    }, 
    {
      "op": "null", 
      "name": "convolution3_bias", 
      "attrs": {
        "kernel": "(3, 3)", 
        "num_filter": "512", 
        "pad": "(1, 1)", 
        "stride": "(1, 1)"
      }, 
      "inputs": []
    }, 
    {
      "op": "Convolution", 
      "name": "convolution3", 
      "attrs": {
        "kernel": "(3, 3)", 
        "num_filter": "512", 
        "pad": "(1, 1)", 
        "stride": "(1, 1)"
      }, 
      "inputs": [[11, 0, 0], [12, 0, 0], [13, 0, 0]]
    }, 
    {
      "op": "Pooling", 
      "name": "pooling2", 
      "attrs": {
        "kernel": "(1, 2)", 
        "pool_type": "max", 
        "stride": "(2, 2)"
      }, 
      "inputs": [[14, 0, 0]]
    }, 
    {
      "op": "null", 
      "name": "batchnorm0_gamma", 
      "inputs": []
    }, 
    {
      "op": "null", 
      "name": "batchnorm0_beta", 
      "inputs": []
    }, 
    {
      "op": "null", 
      "name": "batchnorm0_moving_mean", 
      "attrs": {"__init__": "[\"zero\", {}]"}, 
      "inputs": []
    }, 
    {
      "op": "null", 
      "name": "batchnorm0_moving_var", 
      "attrs": {"__init__": "[\"one\", {}]"}, 
      "inputs": []
    }, 
    {
      "op": "BatchNorm", 
      "name": "batchnorm0", 
      "inputs": [[15, 0, 0], [16, 0, 0], [17, 0, 0], [18, 0, 1], [19, 0, 1]]
    }, 
    {
      "op": "null", 
      "name": "convolution4_weight", 
      "attrs": {
        "kernel": "(3, 3)", 
        "num_filter": "1024", 
        "pad": "(1, 1)", 
        "stride": "(1, 1)"
      }, 
      "inputs": []
    }, 
    {
      "op": "null", 
      "name": "convolution4_bias", 
      "attrs": {
        "kernel": "(3, 3)", 
        "num_filter": "1024", 
        "pad": "(1, 1)", 
        "stride": "(1, 1)"
      }, 
      "inputs": []
    }, 
    {
      "op": "Convolution", 
      "name": "convolution4", 
      "attrs": {
        "kernel": "(3, 3)", 
        "num_filter": "1024", 
        "pad": "(1, 1)", 
        "stride": "(1, 1)"
      }, 
      "inputs": [[20, 0, 0], [21, 0, 0], [22, 0, 0]]
    }, 
    {
      "op": "null", 
      "name": "batchnorm1_gamma", 
      "inputs": []
    }, 
    {
      "op": "null", 
      "name": "batchnorm1_beta", 
      "inputs": []
    }, 
    {
      "op": "null", 
      "name": "batchnorm1_moving_mean", 
      "attrs": {"__init__": "[\"zero\", {}]"}, 
      "inputs": []
    }, 
    {
      "op": "null", 
      "name": "batchnorm1_moving_var", 
      "attrs": {"__init__": "[\"one\", {}]"}, 
      "inputs": []
    }, 
    {
      "op": "BatchNorm", 
      "name": "batchnorm1", 
      "inputs": [[23, 0, 0], [24, 0, 0], [25, 0, 0], [26, 0, 1], [27, 0, 1]]
    }, 
    {
      "op": "Pooling", 
      "name": "pooling3", 
      "attrs": {
        "kernel": "(1, 2)", 
        "pool_type": "max", 
        "stride": "(2, 2)"
      }, 
      "inputs": [[28, 0, 0]]
    }, 
    {
      "op": "null", 
      "name": "convolution5_weight", 
      "attrs": {
        "kernel": "(2, 2)", 
        "num_filter": "1024", 
        "stride": "(1, 1)"
      }, 
      "inputs": []
    }, 
    {
      "op": "null", 
      "name": "convolution5_bias", 
      "attrs": {
        "kernel": "(2, 2)", 
        "num_filter": "1024", 
        "stride": "(1, 1)"
      }, 
      "inputs": []
    }, 
    {
      "op": "Convolution", 
      "name": "convolution5", 
      "attrs": {
        "kernel": "(2, 2)", 
        "num_filter": "1024", 
        "stride": "(1, 1)"
      }, 
      "inputs": [[29, 0, 0], [30, 0, 0], [31, 0, 0]]
    }, 
    {
      "op": "transpose", 
      "name": "transpose0", 
      "attrs": {"axes": "(0, 3, 1, 2)"}, 
      "inputs": [[32, 0, 0]]
    }, 
    {
      "op": "Flatten", 
      "name": "flatten0", 
      "inputs": [[33, 0, 0]]
    }, 
    {
      "op": "SliceChannel", 
      "name": "slicechannel0", 
      "attrs": {
        "num_outputs": "22", 
        "squeeze_axis": "0"
      }, 
      "inputs": [[34, 0, 0]]
    }, 
    {
      "op": "null", 
      "name": "l0_i2h_weight", 
      "inputs": []
    }, 
    {
      "op": "null", 
      "name": "l0_i2h_bias", 
      "inputs": []
    }, 
    {
      "op": "FullyConnected", 
      "name": "t0_l0_i2h", 
      "attrs": {"num_hidden": "2048"}, 
      "inputs": [[35, 0, 0], [36, 0, 0], [37, 0, 0]]
    }, 
    {
      "op": "null", 
      "name": "l0_init_h", 
      "inputs": []
    }, 
    {
      "op": "null", 
      "name": "l0_h2h_weight", 
      "inputs": []
    }, 
    {
      "op": "null", 
      "name": "l0_h2h_bias", 
      "inputs": []
    }, 
    {
      "op": "FullyConnected", 
      "name": "t0_l0_h2h", 
      "attrs": {"num_hidden": "2048"}, 
      "inputs": [[39, 0, 0], [40, 0, 0], [41, 0, 0]]
    }, 
    {
      "op": "elemwise_add", 
      "name": "_plus0", 
      "inputs": [[38, 0, 0], [42, 0, 0]]
    }, 
    {
      "op": "SliceChannel", 
      "name": "t0_l0_slice", 
      "attrs": {"num_outputs": "4"}, 
      "inputs": [[43, 0, 0]]
    }, 
    {
      "op": "Activation", 
      "name": "activation3", 
      "attrs": {"act_type": "sigmoid"}, 
      "inputs": [[44, 3, 0]]
    }, 
    {
      "op": "Activation", 
      "name": "activation2", 
      "attrs": {"act_type": "sigmoid"}, 
      "inputs": [[44, 2, 0]]
    }, 
    {
      "op": "null", 
      "name": "l0_init_c", 
      "inputs": []
    }, 
    {
      "op": "elemwise_mul", 
      "name": "_mul0", 
      "inputs": [[46, 0, 0], [47, 0, 0]]
    }, 
    {
      "op": "Activation", 
      "name": "activation0", 
      "attrs": {"act_type": "sigmoid"}, 
      "inputs": [[44, 0, 0]]
    }, 
    {
      "op": "Activation", 
      "name": "activation1", 
      "attrs": {"act_type": "tanh"}, 
      "inputs": [[44, 1, 0]]
    }, 
    {
      "op": "elemwise_mul", 
      "name": "_mul1", 
      "inputs": [[49, 0, 0], [50, 0, 0]]
    }, 
    {
      "op": "elemwise_add", 
      "name": "_plus1", 
      "inputs": [[48, 0, 0], [51, 0, 0]]
    }, 
    {
      "op": "Activation", 
      "name": "activation4", 
      "attrs": {"act_type": "tanh"}, 
      "inputs": [[52, 0, 0]]
    }, 
    {
      "op": "elemwise_mul", 
      "name": "_mul2", 
      "inputs": [[45, 0, 0], [53, 0, 0]]
    }, 
    {
      "op": "null", 
      "name": "l1_i2h_weight", 
      "inputs": []
    }, 
    {
      "op": "null", 
      "name": "l1_i2h_bias", 
      "inputs": []
    }, 
    {
      "op": "FullyConnected", 
      "name": "t0_l1_i2h", 
      "attrs": {"num_hidden": "2048"}, 
      "inputs": [[54, 0, 0], [55, 0, 0], [56, 0, 0]]
    }, 
    {
      "op": "null", 
      "name": "l1_init_h", 
      "inputs": []
    }, 
    {
      "op": "null", 
      "name": "l1_h2h_weight", 
      "inputs": []
    }, 
    {
      "op": "null", 
      "name": "l1_h2h_bias", 
      "inputs": []
    }, 
    {
      "op": "FullyConnected", 
      "name": "t0_l1_h2h", 
      "attrs": {"num_hidden": "2048"}, 
      "inputs": [[58, 0, 0], [59, 0, 0], [60, 0, 0]]
    }, 
    {
      "op": "elemwise_add", 
      "name": "_plus2", 
      "inputs": [[57, 0, 0], [61, 0, 0]]
    }, 
    {
      "op": "SliceChannel", 
      "name": "t0_l1_slice", 
      "attrs": {"num_outputs": "4"}, 
      "inputs": [[62, 0, 0]]
    }, 
    {
      "op": "Activation", 
      "name": "activation8", 
      "attrs": {"act_type": "sigmoid"}, 
      "inputs": [[63, 3, 0]]
    }, 
    {
      "op": "Activation", 
      "name": "activation7", 
      "attrs": {"act_type": "sigmoid"}, 
      "inputs": [[63, 2, 0]]
    }, 
    {
      "op": "null", 
      "name": "l1_init_c", 
      "inputs": []
    }, 
    {
      "op": "elemwise_mul", 
      "name": "_mul3", 
      "inputs": [[65, 0, 0], [66, 0, 0]]
    }, 
    {
      "op": "Activation", 
      "name": "activation5", 
      "attrs": {"act_type": "sigmoid"}, 
      "inputs": [[63, 0, 0]]
    }, 
    {
      "op": "Activation", 
      "name": "activation6", 
      "attrs": {"act_type": "tanh"}, 
      "inputs": [[63, 1, 0]]
    }, 
    {
      "op": "elemwise_mul", 
      "name": "_mul4", 
      "inputs": [[68, 0, 0], [69, 0, 0]]
    }, 
    {
      "op": "elemwise_add", 
      "name": "_plus3", 
      "inputs": [[67, 0, 0], [70, 0, 0]]
    }, 
    {
      "op": "Activation", 
      "name": "activation9", 
      "attrs": {"act_type": "tanh"}, 
      "inputs": [[71, 0, 0]]
    }, 
    {
      "op": "elemwise_mul", 
      "name": "_mul5", 
      "inputs": [[64, 0, 0], [72, 0, 0]]
    }, 
    {
      "op": "FullyConnected", 
      "name": "t1_l0_i2h", 
      "attrs": {"num_hidden": "2048"}, 
      "inputs": [[35, 1, 0], [36, 0, 0], [37, 0, 0]]
    }, 
    {
      "op": "FullyConnected", 
      "name": "t1_l0_h2h", 
      "attrs": {"num_hidden": "2048"}, 
      "inputs": [[54, 0, 0], [40, 0, 0], [41, 0, 0]]
    }, 
    {
      "op": "elemwise_add", 
      "name": "_plus4", 
      "inputs": [[74, 0, 0], [75, 0, 0]]
    }, 
    {
      "op": "SliceChannel", 
      "name": "t1_l0_slice", 
      "attrs": {"num_outputs": "4"}, 
      "inputs": [[76, 0, 0]]
    }, 
    {
      "op": "Activation", 
      "name": "activation13", 
      "attrs": {"act_type": "sigmoid"}, 
      "inputs": [[77, 3, 0]]
    }, 
    {
      "op": "Activation", 
      "name": "activation12", 
      "attrs": {"act_type": "sigmoid"}, 
      "inputs": [[77, 2, 0]]
    }, 
    {
      "op": "elemwise_mul", 
      "name": "_mul6", 
      "inputs": [[79, 0, 0], [52, 0, 0]]
    }, 
    {
      "op": "Activation", 
      "name": "activation10", 
      "attrs": {"act_type": "sigmoid"}, 
      "inputs": [[77, 0, 0]]
    }, 
    {
      "op": "Activation", 
      "name": "activation11", 
      "attrs": {"act_type": "tanh"}, 
      "inputs": [[77, 1, 0]]
    }, 
    {
      "op": "elemwise_mul", 
      "name": "_mul7", 
      "inputs": [[81, 0, 0], [82, 0, 0]]
    }, 
    {
      "op": "elemwise_add", 
      "name": "_plus5", 
      "inputs": [[80, 0, 0], [83, 0, 0]]
    }, 
    {
      "op": "Activation", 
      "name": "activation14", 
      "attrs": {"act_type": "tanh"}, 
      "inputs": [[84, 0, 0]]
    }, 
    {
      "op": "elemwise_mul", 
      "name": "_mul8", 
      "inputs": [[78, 0, 0], [85, 0, 0]]
    }, 
    {
      "op": "FullyConnected", 
      "name": "t1_l1_i2h", 
      "attrs": {"num_hidden": "2048"}, 
      "inputs": [[86, 0, 0], [55, 0, 0], [56, 0, 0]]
    }, 
    {
      "op": "FullyConnected", 
      "name": "t1_l1_h2h", 
      "attrs": {"num_hidden": "2048"}, 
      "inputs": [[73, 0, 0], [59, 0, 0], [60, 0, 0]]
    }, 
    {
      "op": "elemwise_add", 
      "name": "_plus6", 
      "inputs": [[87, 0, 0], [88, 0, 0]]
    }, 
    {
      "op": "SliceChannel", 
      "name": "t1_l1_slice", 
      "attrs": {"num_outputs": "4"}, 
      "inputs": [[89, 0, 0]]
    }, 
    {
      "op": "Activation", 
      "name": "activation18", 
      "attrs": {"act_type": "sigmoid"}, 
      "inputs": [[90, 3, 0]]
    }, 
    {
      "op": "Activation", 
      "name": "activation17", 
      "attrs": {"act_type": "sigmoid"}, 
      "inputs": [[90, 2, 0]]
    }, 
    {
      "op": "elemwise_mul", 
      "name": "_mul9", 
      "inputs": [[92, 0, 0], [71, 0, 0]]
    }, 
    {
      "op": "Activation", 
      "name": "activation15", 
      "attrs": {"act_type": "sigmoid"}, 
      "inputs": [[90, 0, 0]]
    }, 
    {
      "op": "Activation", 
      "name": "activation16", 
      "attrs": {"act_type": "tanh"}, 
      "inputs": [[90, 1, 0]]
    }, 
    {
      "op": "elemwise_mul", 
      "name": "_mul10", 
      "inputs": [[94, 0, 0], [95, 0, 0]]
    }, 
    {
      "op": "elemwise_add", 
      "name": "_plus7", 
      "inputs": [[93, 0, 0], [96, 0, 0]]
    }, 
    {
      "op": "Activation", 
      "name": "activation19", 
      "attrs": {"act_type": "tanh"}, 
      "inputs": [[97, 0, 0]]
    }, 
    {
      "op": "elemwise_mul", 
      "name": "_mul11", 
      "inputs": [[91, 0, 0], [98, 0, 0]]
    }, 
    {
      "op": "FullyConnected", 
      "name": "t2_l0_i2h", 
      "attrs": {"num_hidden": "2048"}, 
      "inputs": [[35, 2, 0], [36, 0, 0], [37, 0, 0]]
    }, 
    {
      "op": "FullyConnected", 
      "name": "t2_l0_h2h", 
      "attrs": {"num_hidden": "2048"}, 
      "inputs": [[86, 0, 0], [40, 0, 0], [41, 0, 0]]
    }, 
    {
      "op": "elemwise_add", 
      "name": "_plus8", 
      "inputs": [[100, 0, 0], [101, 0, 0]]
    }, 
    {
      "op": "SliceChannel", 
      "name": "t2_l0_slice", 
      "attrs": {"num_outputs": "4"}, 
      "inputs": [[102, 0, 0]]
    }, 
    {
      "op": "Activation", 
      "name": "activation23", 
      "attrs": {"act_type": "sigmoid"}, 
      "inputs": [[103, 3, 0]]
    }, 
    {
      "op": "Activation", 
      "name": "activation22", 
      "attrs": {"act_type": "sigmoid"}, 
      "inputs": [[103, 2, 0]]
    }, 
    {
      "op": "elemwise_mul", 
      "name": "_mul12", 
      "inputs": [[105, 0, 0], [84, 0, 0]]
    }, 
    {
      "op": "Activation", 
      "name": "activation20", 
      "attrs": {"act_type": "sigmoid"}, 
      "inputs": [[103, 0, 0]]
    }, 
    {
      "op": "Activation", 
      "name": "activation21", 
      "attrs": {"act_type": "tanh"}, 
      "inputs": [[103, 1, 0]]
    }, 
    {
      "op": "elemwise_mul", 
      "name": "_mul13", 
      "inputs": [[107, 0, 0], [108, 0, 0]]
    }, 
    {
      "op": "elemwise_add", 
      "name": "_plus9", 
      "inputs": [[106, 0, 0], [109, 0, 0]]
    }, 
    {
      "op": "Activation", 
      "name": "activation24", 
      "attrs": {"act_type": "tanh"}, 
      "inputs": [[110, 0, 0]]
    }, 
    {
      "op": "elemwise_mul", 
      "name": "_mul14", 
      "inputs": [[104, 0, 0], [111, 0, 0]]
    }, 
    {
      "op": "FullyConnected", 
      "name": "t2_l1_i2h", 
      "attrs": {"num_hidden": "2048"}, 
      "inputs": [[112, 0, 0], [55, 0, 0], [56, 0, 0]]
    }, 
    {
      "op": "FullyConnected", 
      "name": "t2_l1_h2h", 
      "attrs": {"num_hidden": "2048"}, 
      "inputs": [[99, 0, 0], [59, 0, 0], [60, 0, 0]]
    }, 
    {
      "op": "elemwise_add", 
      "name": "_plus10", 
      "inputs": [[113, 0, 0], [114, 0, 0]]
    }, 
    {
      "op": "SliceChannel", 
      "name": "t2_l1_slice", 
      "attrs": {"num_outputs": "4"}, 
      "inputs": [[115, 0, 0]]
    }, 
    {
      "op": "Activation", 
      "name": "activation28", 
      "attrs": {"act_type": "sigmoid"}, 
      "inputs": [[116, 3, 0]]
    }, 
    {
      "op": "Activation", 
      "name": "activation27", 
      "attrs": {"act_type": "sigmoid"}, 
      "inputs": [[116, 2, 0]]
    }, 
    {
      "op": "elemwise_mul", 
      "name": "_mul15", 
      "inputs": [[118, 0, 0], [97, 0, 0]]
    }, 
    {
      "op": "Activation", 
      "name": "activation25", 
      "attrs": {"act_type": "sigmoid"}, 
      "inputs": [[116, 0, 0]]
    }, 
    {
      "op": "Activation", 
      "name": "activation26", 
      "attrs": {"act_type": "tanh"}, 
      "inputs": [[116, 1, 0]]
    }, 
    {
      "op": "elemwise_mul", 
      "name": "_mul16", 
      "inputs": [[120, 0, 0], [121, 0, 0]]
    }, 
    {
      "op": "elemwise_add", 
      "name": "_plus11", 
      "inputs": [[119, 0, 0], [122, 0, 0]]
    }, 
    {
      "op": "Activation", 
      "name": "activation29", 
      "attrs": {"act_type": "tanh"}, 
      "inputs": [[123, 0, 0]]
    }, 
    {
      "op": "elemwise_mul", 
      "name": "_mul17", 
      "inputs": [[117, 0, 0], [124, 0, 0]]
    }, 
    {
      "op": "FullyConnected", 
      "name": "t3_l0_i2h", 
      "attrs": {"num_hidden": "2048"}, 
      "inputs": [[35, 3, 0], [36, 0, 0], [37, 0, 0]]
    }, 
    {
      "op": "FullyConnected", 
      "name": "t3_l0_h2h", 
      "attrs": {"num_hidden": "2048"}, 
      "inputs": [[112, 0, 0], [40, 0, 0], [41, 0, 0]]
    }, 
    {
      "op": "elemwise_add", 
      "name": "_plus12", 
      "inputs": [[126, 0, 0], [127, 0, 0]]
    }, 
    {
      "op": "SliceChannel", 
      "name": "t3_l0_slice", 
      "attrs": {"num_outputs": "4"}, 
      "inputs": [[128, 0, 0]]
    }, 
    {
      "op": "Activation", 
      "name": "activation33", 
      "attrs": {"act_type": "sigmoid"}, 
      "inputs": [[129, 3, 0]]
    }, 
    {
      "op": "Activation", 
      "name": "activation32", 
      "attrs": {"act_type": "sigmoid"}, 
      "inputs": [[129, 2, 0]]
    }, 
    {
      "op": "elemwise_mul", 
      "name": "_mul18", 
      "inputs": [[131, 0, 0], [110, 0, 0]]
    }, 
    {
      "op": "Activation", 
      "name": "activation30", 
      "attrs": {"act_type": "sigmoid"}, 
      "inputs": [[129, 0, 0]]
    }, 
    {
      "op": "Activation", 
      "name": "activation31", 
      "attrs": {"act_type": "tanh"}, 
      "inputs": [[129, 1, 0]]
    }, 
    {
      "op": "elemwise_mul", 
      "name": "_mul19", 
      "inputs": [[133, 0, 0], [134, 0, 0]]
    }, 
    {
      "op": "elemwise_add", 
      "name": "_plus13", 
      "inputs": [[132, 0, 0], [135, 0, 0]]
    }, 
    {
      "op": "Activation", 
      "name": "activation34", 
      "attrs": {"act_type": "tanh"}, 
      "inputs": [[136, 0, 0]]
    }, 
    {
      "op": "elemwise_mul", 
      "name": "_mul20", 
      "inputs": [[130, 0, 0], [137, 0, 0]]
    }, 
    {
      "op": "FullyConnected", 
      "name": "t3_l1_i2h", 
      "attrs": {"num_hidden": "2048"}, 
      "inputs": [[138, 0, 0], [55, 0, 0], [56, 0, 0]]
    }, 
    {
      "op": "FullyConnected", 
      "name": "t3_l1_h2h", 
      "attrs": {"num_hidden": "2048"}, 
      "inputs": [[125, 0, 0], [59, 0, 0], [60, 0, 0]]
    }, 
    {
      "op": "elemwise_add", 
      "name": "_plus14", 
      "inputs": [[139, 0, 0], [140, 0, 0]]
    }, 
    {
      "op": "SliceChannel", 
      "name": "t3_l1_slice", 
      "attrs": {"num_outputs": "4"}, 
      "inputs": [[141, 0, 0]]
    }, 
    {
      "op": "Activation", 
      "name": "activation38", 
      "attrs": {"act_type": "sigmoid"}, 
      "inputs": [[142, 3, 0]]
    }, 
    {
      "op": "Activation", 
      "name": "activation37", 
      "attrs": {"act_type": "sigmoid"}, 
      "inputs": [[142, 2, 0]]
    }, 
    {
      "op": "elemwise_mul", 
      "name": "_mul21", 
      "inputs": [[144, 0, 0], [123, 0, 0]]
    }, 
    {
      "op": "Activation", 
      "name": "activation35", 
      "attrs": {"act_type": "sigmoid"}, 
      "inputs": [[142, 0, 0]]
    }, 
    {
      "op": "Activation", 
      "name": "activation36", 
      "attrs": {"act_type": "tanh"}, 
      "inputs": [[142, 1, 0]]
    }, 
    {
      "op": "elemwise_mul", 
      "name": "_mul22", 
      "inputs": [[146, 0, 0], [147, 0, 0]]
    }, 
    {
      "op": "elemwise_add", 
      "name": "_plus15", 
      "inputs": [[145, 0, 0], [148, 0, 0]]
    }, 
    {
      "op": "Activation", 
      "name": "activation39", 
      "attrs": {"act_type": "tanh"}, 
      "inputs": [[149, 0, 0]]
    }, 
    {
      "op": "elemwise_mul", 
      "name": "_mul23", 
      "inputs": [[143, 0, 0], [150, 0, 0]]
    }, 
    {
      "op": "FullyConnected", 
      "name": "t4_l0_i2h", 
      "attrs": {"num_hidden": "2048"}, 
      "inputs": [[35, 4, 0], [36, 0, 0], [37, 0, 0]]
    }, 
    {
      "op": "FullyConnected", 
      "name": "t4_l0_h2h", 
      "attrs": {"num_hidden": "2048"}, 
      "inputs": [[138, 0, 0], [40, 0, 0], [41, 0, 0]]
    }, 
    {
      "op": "elemwise_add", 
      "name": "_plus16", 
      "inputs": [[152, 0, 0], [153, 0, 0]]
    }, 
    {
      "op": "SliceChannel", 
      "name": "t4_l0_slice", 
      "attrs": {"num_outputs": "4"}, 
      "inputs": [[154, 0, 0]]
    }, 
    {
      "op": "Activation", 
      "name": "activation43", 
      "attrs": {"act_type": "sigmoid"}, 
      "inputs": [[155, 3, 0]]
    }, 
    {
      "op": "Activation", 
      "name": "activation42", 
      "attrs": {"act_type": "sigmoid"}, 
      "inputs": [[155, 2, 0]]
    }, 
    {
      "op": "elemwise_mul", 
      "name": "_mul24", 
      "inputs": [[157, 0, 0], [136, 0, 0]]
    }, 
    {
      "op": "Activation", 
      "name": "activation40", 
      "attrs": {"act_type": "sigmoid"}, 
      "inputs": [[155, 0, 0]]
    }, 
    {
      "op": "Activation", 
      "name": "activation41", 
      "attrs": {"act_type": "tanh"}, 
      "inputs": [[155, 1, 0]]
    }, 
    {
      "op": "elemwise_mul", 
      "name": "_mul25", 
      "inputs": [[159, 0, 0], [160, 0, 0]]
    }, 
    {
      "op": "elemwise_add", 
      "name": "_plus17", 
      "inputs": [[158, 0, 0], [161, 0, 0]]
    }, 
    {
      "op": "Activation", 
      "name": "activation44", 
      "attrs": {"act_type": "tanh"}, 
      "inputs": [[162, 0, 0]]
    }, 
    {
      "op": "elemwise_mul", 
      "name": "_mul26", 
      "inputs": [[156, 0, 0], [163, 0, 0]]
    }, 
    {
      "op": "FullyConnected", 
      "name": "t4_l1_i2h", 
      "attrs": {"num_hidden": "2048"}, 
      "inputs": [[164, 0, 0], [55, 0, 0], [56, 0, 0]]
    }, 
    {
      "op": "FullyConnected", 
      "name": "t4_l1_h2h", 
      "attrs": {"num_hidden": "2048"}, 
      "inputs": [[151, 0, 0], [59, 0, 0], [60, 0, 0]]
    }, 
    {
      "op": "elemwise_add", 
      "name": "_plus18", 
      "inputs": [[165, 0, 0], [166, 0, 0]]
    }, 
    {
      "op": "SliceChannel", 
      "name": "t4_l1_slice", 
      "attrs": {"num_outputs": "4"}, 
      "inputs": [[167, 0, 0]]
    }, 
    {
      "op": "Activation", 
      "name": "activation48", 
      "attrs": {"act_type": "sigmoid"}, 
      "inputs": [[168, 3, 0]]
    }, 
    {
      "op": "Activation", 
      "name": "activation47", 
      "attrs": {"act_type": "sigmoid"}, 
      "inputs": [[168, 2, 0]]
    }, 
    {
      "op": "elemwise_mul", 
      "name": "_mul27", 
      "inputs": [[170, 0, 0], [149, 0, 0]]
    }, 
    {
      "op": "Activation", 
      "name": "activation45", 
      "attrs": {"act_type": "sigmoid"}, 
      "inputs": [[168, 0, 0]]
    }, 
    {
      "op": "Activation", 
      "name": "activation46", 
      "attrs": {"act_type": "tanh"}, 
      "inputs": [[168, 1, 0]]
    }, 
    {
      "op": "elemwise_mul", 
      "name": "_mul28", 
      "inputs": [[172, 0, 0], [173, 0, 0]]
    }, 
    {
      "op": "elemwise_add", 
      "name": "_plus19", 
      "inputs": [[171, 0, 0], [174, 0, 0]]
    }, 
    {
      "op": "Activation", 
      "name": "activation49", 
      "attrs": {"act_type": "tanh"}, 
      "inputs": [[175, 0, 0]]
    }, 
    {
      "op": "elemwise_mul", 
      "name": "_mul29", 
      "inputs": [[169, 0, 0], [176, 0, 0]]
    }, 
    {
      "op": "FullyConnected", 
      "name": "t5_l0_i2h", 
      "attrs": {"num_hidden": "2048"}, 
      "inputs": [[35, 5, 0], [36, 0, 0], [37, 0, 0]]
    }, 
    {
      "op": "FullyConnected", 
      "name": "t5_l0_h2h", 
      "attrs": {"num_hidden": "2048"}, 
      "inputs": [[164, 0, 0], [40, 0, 0], [41, 0, 0]]
    }, 
    {
      "op": "elemwise_add", 
      "name": "_plus20", 
      "inputs": [[178, 0, 0], [179, 0, 0]]
    }, 
    {
      "op": "SliceChannel", 
      "name": "t5_l0_slice", 
      "attrs": {"num_outputs": "4"}, 
      "inputs": [[180, 0, 0]]
    }, 
    {
      "op": "Activation", 
      "name": "activation53", 
      "attrs": {"act_type": "sigmoid"}, 
      "inputs": [[181, 3, 0]]
    }, 
    {
      "op": "Activation", 
      "name": "activation52", 
      "attrs": {"act_type": "sigmoid"}, 
      "inputs": [[181, 2, 0]]
    }, 
    {
      "op": "elemwise_mul", 
      "name": "_mul30", 
      "inputs": [[183, 0, 0], [162, 0, 0]]
    }, 
    {
      "op": "Activation", 
      "name": "activation50", 
      "attrs": {"act_type": "sigmoid"}, 
      "inputs": [[181, 0, 0]]
    }, 
    {
      "op": "Activation", 
      "name": "activation51", 
      "attrs": {"act_type": "tanh"}, 
      "inputs": [[181, 1, 0]]
    }, 
    {
      "op": "elemwise_mul", 
      "name": "_mul31", 
      "inputs": [[185, 0, 0], [186, 0, 0]]
    }, 
    {
      "op": "elemwise_add", 
      "name": "_plus21", 
      "inputs": [[184, 0, 0], [187, 0, 0]]
    }, 
    {
      "op": "Activation", 
      "name": "activation54", 
      "attrs": {"act_type": "tanh"}, 
      "inputs": [[188, 0, 0]]
    }, 
    {
      "op": "elemwise_mul", 
      "name": "_mul32", 
      "inputs": [[182, 0, 0], [189, 0, 0]]
    }, 
    {
      "op": "FullyConnected", 
      "name": "t5_l1_i2h", 
      "attrs": {"num_hidden": "2048"}, 
      "inputs": [[190, 0, 0], [55, 0, 0], [56, 0, 0]]
    }, 
    {
      "op": "FullyConnected", 
      "name": "t5_l1_h2h", 
      "attrs": {"num_hidden": "2048"}, 
      "inputs": [[177, 0, 0], [59, 0, 0], [60, 0, 0]]
    }, 
    {
      "op": "elemwise_add", 
      "name": "_plus22", 
      "inputs": [[191, 0, 0], [192, 0, 0]]
    }, 
    {
      "op": "SliceChannel", 
      "name": "t5_l1_slice", 
      "attrs": {"num_outputs": "4"}, 
      "inputs": [[193, 0, 0]]
    }, 
    {
      "op": "Activation", 
      "name": "activation58", 
      "attrs": {"act_type": "sigmoid"}, 
      "inputs": [[194, 3, 0]]
    }, 
    {
      "op": "Activation", 
      "name": "activation57", 
      "attrs": {"act_type": "sigmoid"}, 
      "inputs": [[194, 2, 0]]
    }, 
    {
      "op": "elemwise_mul", 
      "name": "_mul33", 
      "inputs": [[196, 0, 0], [175, 0, 0]]
    }, 
    {
      "op": "Activation", 
      "name": "activation55", 
      "attrs": {"act_type": "sigmoid"}, 
      "inputs": [[194, 0, 0]]
    }, 
    {
      "op": "Activation", 
      "name": "activation56", 
      "attrs": {"act_type": "tanh"}, 
      "inputs": [[194, 1, 0]]
    }, 
    {
      "op": "elemwise_mul", 
      "name": "_mul34", 
      "inputs": [[198, 0, 0], [199, 0, 0]]
    }, 
    {
      "op": "elemwise_add", 
      "name": "_plus23", 
      "inputs": [[197, 0, 0], [200, 0, 0]]
    }, 
    {
      "op": "Activation", 
      "name": "activation59", 
      "attrs": {"act_type": "tanh"}, 
      "inputs": [[201, 0, 0]]
    }, 
    {
      "op": "elemwise_mul", 
      "name": "_mul35", 
      "inputs": [[195, 0, 0], [202, 0, 0]]
    }, 
    {
      "op": "FullyConnected", 
      "name": "t6_l0_i2h", 
      "attrs": {"num_hidden": "2048"}, 
      "inputs": [[35, 6, 0], [36, 0, 0], [37, 0, 0]]
    }, 
    {
      "op": "FullyConnected", 
      "name": "t6_l0_h2h", 
      "attrs": {"num_hidden": "2048"}, 
      "inputs": [[190, 0, 0], [40, 0, 0], [41, 0, 0]]
    }, 
    {
      "op": "elemwise_add", 
      "name": "_plus24", 
      "inputs": [[204, 0, 0], [205, 0, 0]]
    }, 
    {
      "op": "SliceChannel", 
      "name": "t6_l0_slice", 
      "attrs": {"num_outputs": "4"}, 
      "inputs": [[206, 0, 0]]
    }, 
    {
      "op": "Activation", 
      "name": "activation63", 
      "attrs": {"act_type": "sigmoid"}, 
      "inputs": [[207, 3, 0]]
    }, 
    {
      "op": "Activation", 
      "name": "activation62", 
      "attrs": {"act_type": "sigmoid"}, 
      "inputs": [[207, 2, 0]]
    }, 
    {
      "op": "elemwise_mul", 
      "name": "_mul36", 
      "inputs": [[209, 0, 0], [188, 0, 0]]
    }, 
    {
      "op": "Activation", 
      "name": "activation60", 
      "attrs": {"act_type": "sigmoid"}, 
      "inputs": [[207, 0, 0]]
    }, 
    {
      "op": "Activation", 
      "name": "activation61", 
      "attrs": {"act_type": "tanh"}, 
      "inputs": [[207, 1, 0]]
    }, 
    {
      "op": "elemwise_mul", 
      "name": "_mul37", 
      "inputs": [[211, 0, 0], [212, 0, 0]]
    }, 
    {
      "op": "elemwise_add", 
      "name": "_plus25", 
      "inputs": [[210, 0, 0], [213, 0, 0]]
    }, 
    {
      "op": "Activation", 
      "name": "activation64", 
      "attrs": {"act_type": "tanh"}, 
      "inputs": [[214, 0, 0]]
    }, 
    {
      "op": "elemwise_mul", 
      "name": "_mul38", 
      "inputs": [[208, 0, 0], [215, 0, 0]]
    }, 
    {
      "op": "FullyConnected", 
      "name": "t6_l1_i2h", 
      "attrs": {"num_hidden": "2048"}, 
      "inputs": [[216, 0, 0], [55, 0, 0], [56, 0, 0]]
    }, 
    {
      "op": "FullyConnected", 
      "name": "t6_l1_h2h", 
      "attrs": {"num_hidden": "2048"}, 
      "inputs": [[203, 0, 0], [59, 0, 0], [60, 0, 0]]
    }, 
    {
      "op": "elemwise_add", 
      "name": "_plus26", 
      "inputs": [[217, 0, 0], [218, 0, 0]]
    }, 
    {
      "op": "SliceChannel", 
      "name": "t6_l1_slice", 
      "attrs": {"num_outputs": "4"}, 
      "inputs": [[219, 0, 0]]
    }, 
    {
      "op": "Activation", 
      "name": "activation68", 
      "attrs": {"act_type": "sigmoid"}, 
      "inputs": [[220, 3, 0]]
    }, 
    {
      "op": "Activation", 
      "name": "activation67", 
      "attrs": {"act_type": "sigmoid"}, 
      "inputs": [[220, 2, 0]]
    }, 
    {
      "op": "elemwise_mul", 
      "name": "_mul39", 
      "inputs": [[222, 0, 0], [201, 0, 0]]
    }, 
    {
      "op": "Activation", 
      "name": "activation65", 
      "attrs": {"act_type": "sigmoid"}, 
      "inputs": [[220, 0, 0]]
    }, 
    {
      "op": "Activation", 
      "name": "activation66", 
      "attrs": {"act_type": "tanh"}, 
      "inputs": [[220, 1, 0]]
    }, 
    {
      "op": "elemwise_mul", 
      "name": "_mul40", 
      "inputs": [[224, 0, 0], [225, 0, 0]]
    }, 
    {
      "op": "elemwise_add", 
      "name": "_plus27", 
      "inputs": [[223, 0, 0], [226, 0, 0]]
    }, 
    {
      "op": "Activation", 
      "name": "activation69", 
      "attrs": {"act_type": "tanh"}, 
      "inputs": [[227, 0, 0]]
    }, 
    {
      "op": "elemwise_mul", 
      "name": "_mul41", 
      "inputs": [[221, 0, 0], [228, 0, 0]]
    }, 
    {
      "op": "FullyConnected", 
      "name": "t7_l0_i2h", 
      "attrs": {"num_hidden": "2048"}, 
      "inputs": [[35, 7, 0], [36, 0, 0], [37, 0, 0]]
    }, 
    {
      "op": "FullyConnected", 
      "name": "t7_l0_h2h", 
      "attrs": {"num_hidden": "2048"}, 
      "inputs": [[216, 0, 0], [40, 0, 0], [41, 0, 0]]
    }, 
    {
      "op": "elemwise_add", 
      "name": "_plus28", 
      "inputs": [[230, 0, 0], [231, 0, 0]]
    }, 
    {
      "op": "SliceChannel", 
      "name": "t7_l0_slice", 
      "attrs": {"num_outputs": "4"}, 
      "inputs": [[232, 0, 0]]
    }, 
    {
      "op": "Activation", 
      "name": "activation73", 
      "attrs": {"act_type": "sigmoid"}, 
      "inputs": [[233, 3, 0]]
    }, 
    {
      "op": "Activation", 
      "name": "activation72", 
      "attrs": {"act_type": "sigmoid"}, 
      "inputs": [[233, 2, 0]]
    }, 
    {
      "op": "elemwise_mul", 
      "name": "_mul42", 
      "inputs": [[235, 0, 0], [214, 0, 0]]
    }, 
    {
      "op": "Activation", 
      "name": "activation70", 
      "attrs": {"act_type": "sigmoid"}, 
      "inputs": [[233, 0, 0]]
    }, 
    {
      "op": "Activation", 
      "name": "activation71", 
      "attrs": {"act_type": "tanh"}, 
      "inputs": [[233, 1, 0]]
    }, 
    {
      "op": "elemwise_mul", 
      "name": "_mul43", 
      "inputs": [[237, 0, 0], [238, 0, 0]]
    }, 
    {
      "op": "elemwise_add", 
      "name": "_plus29", 
      "inputs": [[236, 0, 0], [239, 0, 0]]
    }, 
    {
      "op": "Activation", 
      "name": "activation74", 
      "attrs": {"act_type": "tanh"}, 
      "inputs": [[240, 0, 0]]
    }, 
    {
      "op": "elemwise_mul", 
      "name": "_mul44", 
      "inputs": [[234, 0, 0], [241, 0, 0]]
    }, 
    {
      "op": "FullyConnected", 
      "name": "t7_l1_i2h", 
      "attrs": {"num_hidden": "2048"}, 
      "inputs": [[242, 0, 0], [55, 0, 0], [56, 0, 0]]
    }, 
    {
      "op": "FullyConnected", 
      "name": "t7_l1_h2h", 
      "attrs": {"num_hidden": "2048"}, 
      "inputs": [[229, 0, 0], [59, 0, 0], [60, 0, 0]]
    }, 
    {
      "op": "elemwise_add", 
      "name": "_plus30", 
      "inputs": [[243, 0, 0], [244, 0, 0]]
    }, 
    {
      "op": "SliceChannel", 
      "name": "t7_l1_slice", 
      "attrs": {"num_outputs": "4"}, 
      "inputs": [[245, 0, 0]]
    }, 
    {
      "op": "Activation", 
      "name": "activation78", 
      "attrs": {"act_type": "sigmoid"}, 
      "inputs": [[246, 3, 0]]
    }, 
    {
      "op": "Activation", 
      "name": "activation77", 
      "attrs": {"act_type": "sigmoid"}, 
      "inputs": [[246, 2, 0]]
    }, 
    {
      "op": "elemwise_mul", 
      "name": "_mul45", 
      "inputs": [[248, 0, 0], [227, 0, 0]]
    }, 
    {
      "op": "Activation", 
      "name": "activation75", 
      "attrs": {"act_type": "sigmoid"}, 
      "inputs": [[246, 0, 0]]
    }, 
    {
      "op": "Activation", 
      "name": "activation76", 
      "attrs": {"act_type": "tanh"}, 
      "inputs": [[246, 1, 0]]
    }, 
    {
      "op": "elemwise_mul", 
      "name": "_mul46", 
      "inputs": [[250, 0, 0], [251, 0, 0]]
    }, 
    {
      "op": "elemwise_add", 
      "name": "_plus31", 
      "inputs": [[249, 0, 0], [252, 0, 0]]
    }, 
    {
      "op": "Activation", 
      "name": "activation79", 
      "attrs": {"act_type": "tanh"}, 
      "inputs": [[253, 0, 0]]
    }, 
    {
      "op": "elemwise_mul", 
      "name": "_mul47", 
      "inputs": [[247, 0, 0], [254, 0, 0]]
    }, 
    {
      "op": "FullyConnected", 
      "name": "t8_l0_i2h", 
      "attrs": {"num_hidden": "2048"}, 
      "inputs": [[35, 8, 0], [36, 0, 0], [37, 0, 0]]
    }, 
    {
      "op": "FullyConnected", 
      "name": "t8_l0_h2h", 
      "attrs": {"num_hidden": "2048"}, 
      "inputs": [[242, 0, 0], [40, 0, 0], [41, 0, 0]]
    }, 
    {
      "op": "elemwise_add", 
      "name": "_plus32", 
      "inputs": [[256, 0, 0], [257, 0, 0]]
    }, 
    {
      "op": "SliceChannel", 
      "name": "t8_l0_slice", 
      "attrs": {"num_outputs": "4"}, 
      "inputs": [[258, 0, 0]]
    }, 
    {
      "op": "Activation", 
      "name": "activation83", 
      "attrs": {"act_type": "sigmoid"}, 
      "inputs": [[259, 3, 0]]
    }, 
    {
      "op": "Activation", 
      "name": "activation82", 
      "attrs": {"act_type": "sigmoid"}, 
      "inputs": [[259, 2, 0]]
    }, 
    {
      "op": "elemwise_mul", 
      "name": "_mul48", 
      "inputs": [[261, 0, 0], [240, 0, 0]]
    }, 
    {
      "op": "Activation", 
      "name": "activation80", 
      "attrs": {"act_type": "sigmoid"}, 
      "inputs": [[259, 0, 0]]
    }, 
    {
      "op": "Activation", 
      "name": "activation81", 
      "attrs": {"act_type": "tanh"}, 
      "inputs": [[259, 1, 0]]
    }, 
    {
      "op": "elemwise_mul", 
      "name": "_mul49", 
      "inputs": [[263, 0, 0], [264, 0, 0]]
    }, 
    {
      "op": "elemwise_add", 
      "name": "_plus33", 
      "inputs": [[262, 0, 0], [265, 0, 0]]
    }, 
    {
      "op": "Activation", 
      "name": "activation84", 
      "attrs": {"act_type": "tanh"}, 
      "inputs": [[266, 0, 0]]
    }, 
    {
      "op": "elemwise_mul", 
      "name": "_mul50", 
      "inputs": [[260, 0, 0], [267, 0, 0]]
    }, 
    {
      "op": "FullyConnected", 
      "name": "t8_l1_i2h", 
      "attrs": {"num_hidden": "2048"}, 
      "inputs": [[268, 0, 0], [55, 0, 0], [56, 0, 0]]
    }, 
    {
      "op": "FullyConnected", 
      "name": "t8_l1_h2h", 
      "attrs": {"num_hidden": "2048"}, 
      "inputs": [[255, 0, 0], [59, 0, 0], [60, 0, 0]]
    }, 
    {
      "op": "elemwise_add", 
      "name": "_plus34", 
      "inputs": [[269, 0, 0], [270, 0, 0]]
    }, 
    {
      "op": "SliceChannel", 
      "name": "t8_l1_slice", 
      "attrs": {"num_outputs": "4"}, 
      "inputs": [[271, 0, 0]]
    }, 
    {
      "op": "Activation", 
      "name": "activation88", 
      "attrs": {"act_type": "sigmoid"}, 
      "inputs": [[272, 3, 0]]
    }, 
    {
      "op": "Activation", 
      "name": "activation87", 
      "attrs": {"act_type": "sigmoid"}, 
      "inputs": [[272, 2, 0]]
    }, 
    {
      "op": "elemwise_mul", 
      "name": "_mul51", 
      "inputs": [[274, 0, 0], [253, 0, 0]]
    }, 
    {
      "op": "Activation", 
      "name": "activation85", 
      "attrs": {"act_type": "sigmoid"}, 
      "inputs": [[272, 0, 0]]
    }, 
    {
      "op": "Activation", 
      "name": "activation86", 
      "attrs": {"act_type": "tanh"}, 
      "inputs": [[272, 1, 0]]
    }, 
    {
      "op": "elemwise_mul", 
      "name": "_mul52", 
      "inputs": [[276, 0, 0], [277, 0, 0]]
    }, 
    {
      "op": "elemwise_add", 
      "name": "_plus35", 
      "inputs": [[275, 0, 0], [278, 0, 0]]
    }, 
    {
      "op": "Activation", 
      "name": "activation89", 
      "attrs": {"act_type": "tanh"}, 
      "inputs": [[279, 0, 0]]
    }, 
    {
      "op": "elemwise_mul", 
      "name": "_mul53", 
      "inputs": [[273, 0, 0], [280, 0, 0]]
    }, 
    {
      "op": "FullyConnected", 
      "name": "t9_l0_i2h", 
      "attrs": {"num_hidden": "2048"}, 
      "inputs": [[35, 9, 0], [36, 0, 0], [37, 0, 0]]
    }, 
    {
      "op": "FullyConnected", 
      "name": "t9_l0_h2h", 
      "attrs": {"num_hidden": "2048"}, 
      "inputs": [[268, 0, 0], [40, 0, 0], [41, 0, 0]]
    }, 
    {
      "op": "elemwise_add", 
      "name": "_plus36", 
      "inputs": [[282, 0, 0], [283, 0, 0]]
    }, 
    {
      "op": "SliceChannel", 
      "name": "t9_l0_slice", 
      "attrs": {"num_outputs": "4"}, 
      "inputs": [[284, 0, 0]]
    }, 
    {
      "op": "Activation", 
      "name": "activation93", 
      "attrs": {"act_type": "sigmoid"}, 
      "inputs": [[285, 3, 0]]
    }, 
    {
      "op": "Activation", 
      "name": "activation92", 
      "attrs": {"act_type": "sigmoid"}, 
      "inputs": [[285, 2, 0]]
    }, 
    {
      "op": "elemwise_mul", 
      "name": "_mul54", 
      "inputs": [[287, 0, 0], [266, 0, 0]]
    }, 
    {
      "op": "Activation", 
      "name": "activation90", 
      "attrs": {"act_type": "sigmoid"}, 
      "inputs": [[285, 0, 0]]
    }, 
    {
      "op": "Activation", 
      "name": "activation91", 
      "attrs": {"act_type": "tanh"}, 
      "inputs": [[285, 1, 0]]
    }, 
    {
      "op": "elemwise_mul", 
      "name": "_mul55", 
      "inputs": [[289, 0, 0], [290, 0, 0]]
    }, 
    {
      "op": "elemwise_add", 
      "name": "_plus37", 
      "inputs": [[288, 0, 0], [291, 0, 0]]
    }, 
    {
      "op": "Activation", 
      "name": "activation94", 
      "attrs": {"act_type": "tanh"}, 
      "inputs": [[292, 0, 0]]
    }, 
    {
      "op": "elemwise_mul", 
      "name": "_mul56", 
      "inputs": [[286, 0, 0], [293, 0, 0]]
    }, 
    {
      "op": "FullyConnected", 
      "name": "t9_l1_i2h", 
      "attrs": {"num_hidden": "2048"}, 
      "inputs": [[294, 0, 0], [55, 0, 0], [56, 0, 0]]
    }, 
    {
      "op": "FullyConnected", 
      "name": "t9_l1_h2h", 
      "attrs": {"num_hidden": "2048"}, 
      "inputs": [[281, 0, 0], [59, 0, 0], [60, 0, 0]]
    }, 
    {
      "op": "elemwise_add", 
      "name": "_plus38", 
      "inputs": [[295, 0, 0], [296, 0, 0]]
    }, 
    {
      "op": "SliceChannel", 
      "name": "t9_l1_slice", 
      "attrs": {"num_outputs": "4"}, 
      "inputs": [[297, 0, 0]]
    }, 
    {
      "op": "Activation", 
      "name": "activation98", 
      "attrs": {"act_type": "sigmoid"}, 
      "inputs": [[298, 3, 0]]
    }, 
    {
      "op": "Activation", 
      "name": "activation97", 
      "attrs": {"act_type": "sigmoid"}, 
      "inputs": [[298, 2, 0]]
    }, 
    {
      "op": "elemwise_mul", 
      "name": "_mul57", 
      "inputs": [[300, 0, 0], [279, 0, 0]]
    }, 
    {
      "op": "Activation", 
      "name": "activation95", 
      "attrs": {"act_type": "sigmoid"}, 
      "inputs": [[298, 0, 0]]
    }, 
    {
      "op": "Activation", 
      "name": "activation96", 
      "attrs": {"act_type": "tanh"}, 
      "inputs": [[298, 1, 0]]
    }, 
    {
      "op": "elemwise_mul", 
      "name": "_mul58", 
      "inputs": [[302, 0, 0], [303, 0, 0]]
    }, 
    {
      "op": "elemwise_add", 
      "name": "_plus39", 
      "inputs": [[301, 0, 0], [304, 0, 0]]
    }, 
    {
      "op": "Activation", 
      "name": "activation99", 
      "attrs": {"act_type": "tanh"}, 
      "inputs": [[305, 0, 0]]
    }, 
    {
      "op": "elemwise_mul", 
      "name": "_mul59", 
      "inputs": [[299, 0, 0], [306, 0, 0]]
    }, 
    {
      "op": "FullyConnected", 
      "name": "t10_l0_i2h", 
      "attrs": {"num_hidden": "2048"}, 
      "inputs": [[35, 10, 0], [36, 0, 0], [37, 0, 0]]
    }, 
    {
      "op": "FullyConnected", 
      "name": "t10_l0_h2h", 
      "attrs": {"num_hidden": "2048"}, 
      "inputs": [[294, 0, 0], [40, 0, 0], [41, 0, 0]]
    }, 
    {
      "op": "elemwise_add", 
      "name": "_plus40", 
      "inputs": [[308, 0, 0], [309, 0, 0]]
    }, 
    {
      "op": "SliceChannel", 
      "name": "t10_l0_slice", 
      "attrs": {"num_outputs": "4"}, 
      "inputs": [[310, 0, 0]]
    }, 
    {
      "op": "Activation", 
      "name": "activation103", 
      "attrs": {"act_type": "sigmoid"}, 
      "inputs": [[311, 3, 0]]
    }, 
    {
      "op": "Activation", 
      "name": "activation102", 
      "attrs": {"act_type": "sigmoid"}, 
      "inputs": [[311, 2, 0]]
    }, 
    {
      "op": "elemwise_mul", 
      "name": "_mul60", 
      "inputs": [[313, 0, 0], [292, 0, 0]]
    }, 
    {
      "op": "Activation", 
      "name": "activation100", 
      "attrs": {"act_type": "sigmoid"}, 
      "inputs": [[311, 0, 0]]
    }, 
    {
      "op": "Activation", 
      "name": "activation101", 
      "attrs": {"act_type": "tanh"}, 
      "inputs": [[311, 1, 0]]
    }, 
    {
      "op": "elemwise_mul", 
      "name": "_mul61", 
      "inputs": [[315, 0, 0], [316, 0, 0]]
    }, 
    {
      "op": "elemwise_add", 
      "name": "_plus41", 
      "inputs": [[314, 0, 0], [317, 0, 0]]
    }, 
    {
      "op": "Activation", 
      "name": "activation104", 
      "attrs": {"act_type": "tanh"}, 
      "inputs": [[318, 0, 0]]
    }, 
    {
      "op": "elemwise_mul", 
      "name": "_mul62", 
      "inputs": [[312, 0, 0], [319, 0, 0]]
    }, 
    {
      "op": "FullyConnected", 
      "name": "t10_l1_i2h", 
      "attrs": {"num_hidden": "2048"}, 
      "inputs": [[320, 0, 0], [55, 0, 0], [56, 0, 0]]
    }, 
    {
      "op": "FullyConnected", 
      "name": "t10_l1_h2h", 
      "attrs": {"num_hidden": "2048"}, 
      "inputs": [[307, 0, 0], [59, 0, 0], [60, 0, 0]]
    }, 
    {
      "op": "elemwise_add", 
      "name": "_plus42", 
      "inputs": [[321, 0, 0], [322, 0, 0]]
    }, 
    {
      "op": "SliceChannel", 
      "name": "t10_l1_slice", 
      "attrs": {"num_outputs": "4"}, 
      "inputs": [[323, 0, 0]]
    }, 
    {
      "op": "Activation", 
      "name": "activation108", 
      "attrs": {"act_type": "sigmoid"}, 
      "inputs": [[324, 3, 0]]
    }, 
    {
      "op": "Activation", 
      "name": "activation107", 
      "attrs": {"act_type": "sigmoid"}, 
      "inputs": [[324, 2, 0]]
    }, 
    {
      "op": "elemwise_mul", 
      "name": "_mul63", 
      "inputs": [[326, 0, 0], [305, 0, 0]]
    }, 
    {
      "op": "Activation", 
      "name": "activation105", 
      "attrs": {"act_type": "sigmoid"}, 
      "inputs": [[324, 0, 0]]
    }, 
    {
      "op": "Activation", 
      "name": "activation106", 
      "attrs": {"act_type": "tanh"}, 
      "inputs": [[324, 1, 0]]
    }, 
    {
      "op": "elemwise_mul", 
      "name": "_mul64", 
      "inputs": [[328, 0, 0], [329, 0, 0]]
    }, 
    {
      "op": "elemwise_add", 
      "name": "_plus43", 
      "inputs": [[327, 0, 0], [330, 0, 0]]
    }, 
    {
      "op": "Activation", 
      "name": "activation109", 
      "attrs": {"act_type": "tanh"}, 
      "inputs": [[331, 0, 0]]
    }, 
    {
      "op": "elemwise_mul", 
      "name": "_mul65", 
      "inputs": [[325, 0, 0], [332, 0, 0]]
    }, 
    {
      "op": "FullyConnected", 
      "name": "t11_l0_i2h", 
      "attrs": {"num_hidden": "2048"}, 
      "inputs": [[35, 11, 0], [36, 0, 0], [37, 0, 0]]
    }, 
    {
      "op": "FullyConnected", 
      "name": "t11_l0_h2h", 
      "attrs": {"num_hidden": "2048"}, 
      "inputs": [[320, 0, 0], [40, 0, 0], [41, 0, 0]]
    }, 
    {
      "op": "elemwise_add", 
      "name": "_plus44", 
      "inputs": [[334, 0, 0], [335, 0, 0]]
    }, 
    {
      "op": "SliceChannel", 
      "name": "t11_l0_slice", 
      "attrs": {"num_outputs": "4"}, 
      "inputs": [[336, 0, 0]]
    }, 
    {
      "op": "Activation", 
      "name": "activation113", 
      "attrs": {"act_type": "sigmoid"}, 
      "inputs": [[337, 3, 0]]
    }, 
    {
      "op": "Activation", 
      "name": "activation112", 
      "attrs": {"act_type": "sigmoid"}, 
      "inputs": [[337, 2, 0]]
    }, 
    {
      "op": "elemwise_mul", 
      "name": "_mul66", 
      "inputs": [[339, 0, 0], [318, 0, 0]]
    }, 
    {
      "op": "Activation", 
      "name": "activation110", 
      "attrs": {"act_type": "sigmoid"}, 
      "inputs": [[337, 0, 0]]
    }, 
    {
      "op": "Activation", 
      "name": "activation111", 
      "attrs": {"act_type": "tanh"}, 
      "inputs": [[337, 1, 0]]
    }, 
    {
      "op": "elemwise_mul", 
      "name": "_mul67", 
      "inputs": [[341, 0, 0], [342, 0, 0]]
    }, 
    {
      "op": "elemwise_add", 
      "name": "_plus45", 
      "inputs": [[340, 0, 0], [343, 0, 0]]
    }, 
    {
      "op": "Activation", 
      "name": "activation114", 
      "attrs": {"act_type": "tanh"}, 
      "inputs": [[344, 0, 0]]
    }, 
    {
      "op": "elemwise_mul", 
      "name": "_mul68", 
      "inputs": [[338, 0, 0], [345, 0, 0]]
    }, 
    {
      "op": "FullyConnected", 
      "name": "t11_l1_i2h", 
      "attrs": {"num_hidden": "2048"}, 
      "inputs": [[346, 0, 0], [55, 0, 0], [56, 0, 0]]
    }, 
    {
      "op": "FullyConnected", 
      "name": "t11_l1_h2h", 
      "attrs": {"num_hidden": "2048"}, 
      "inputs": [[333, 0, 0], [59, 0, 0], [60, 0, 0]]
    }, 
    {
      "op": "elemwise_add", 
      "name": "_plus46", 
      "inputs": [[347, 0, 0], [348, 0, 0]]
    }, 
    {
      "op": "SliceChannel", 
      "name": "t11_l1_slice", 
      "attrs": {"num_outputs": "4"}, 
      "inputs": [[349, 0, 0]]
    }, 
    {
      "op": "Activation", 
      "name": "activation118", 
      "attrs": {"act_type": "sigmoid"}, 
      "inputs": [[350, 3, 0]]
    }, 
    {
      "op": "Activation", 
      "name": "activation117", 
      "attrs": {"act_type": "sigmoid"}, 
      "inputs": [[350, 2, 0]]
    }, 
    {
      "op": "elemwise_mul", 
      "name": "_mul69", 
      "inputs": [[352, 0, 0], [331, 0, 0]]
    }, 
    {
      "op": "Activation", 
      "name": "activation115", 
      "attrs": {"act_type": "sigmoid"}, 
      "inputs": [[350, 0, 0]]
    }, 
    {
      "op": "Activation", 
      "name": "activation116", 
      "attrs": {"act_type": "tanh"}, 
      "inputs": [[350, 1, 0]]
    }, 
    {
      "op": "elemwise_mul", 
      "name": "_mul70", 
      "inputs": [[354, 0, 0], [355, 0, 0]]
    }, 
    {
      "op": "elemwise_add", 
      "name": "_plus47", 
      "inputs": [[353, 0, 0], [356, 0, 0]]
    }, 
    {
      "op": "Activation", 
      "name": "activation119", 
      "attrs": {"act_type": "tanh"}, 
      "inputs": [[357, 0, 0]]
    }, 
    {
      "op": "elemwise_mul", 
      "name": "_mul71", 
      "inputs": [[351, 0, 0], [358, 0, 0]]
    }, 
    {
      "op": "FullyConnected", 
      "name": "t12_l0_i2h", 
      "attrs": {"num_hidden": "2048"}, 
      "inputs": [[35, 12, 0], [36, 0, 0], [37, 0, 0]]
    }, 
    {
      "op": "FullyConnected", 
      "name": "t12_l0_h2h", 
      "attrs": {"num_hidden": "2048"}, 
      "inputs": [[346, 0, 0], [40, 0, 0], [41, 0, 0]]
    }, 
    {
      "op": "elemwise_add", 
      "name": "_plus48", 
      "inputs": [[360, 0, 0], [361, 0, 0]]
    }, 
    {
      "op": "SliceChannel", 
      "name": "t12_l0_slice", 
      "attrs": {"num_outputs": "4"}, 
      "inputs": [[362, 0, 0]]
    }, 
    {
      "op": "Activation", 
      "name": "activation123", 
      "attrs": {"act_type": "sigmoid"}, 
      "inputs": [[363, 3, 0]]
    }, 
    {
      "op": "Activation", 
      "name": "activation122", 
      "attrs": {"act_type": "sigmoid"}, 
      "inputs": [[363, 2, 0]]
    }, 
    {
      "op": "elemwise_mul", 
      "name": "_mul72", 
      "inputs": [[365, 0, 0], [344, 0, 0]]
    }, 
    {
      "op": "Activation", 
      "name": "activation120", 
      "attrs": {"act_type": "sigmoid"}, 
      "inputs": [[363, 0, 0]]
    }, 
    {
      "op": "Activation", 
      "name": "activation121", 
      "attrs": {"act_type": "tanh"}, 
      "inputs": [[363, 1, 0]]
    }, 
    {
      "op": "elemwise_mul", 
      "name": "_mul73", 
      "inputs": [[367, 0, 0], [368, 0, 0]]
    }, 
    {
      "op": "elemwise_add", 
      "name": "_plus49", 
      "inputs": [[366, 0, 0], [369, 0, 0]]
    }, 
    {
      "op": "Activation", 
      "name": "activation124", 
      "attrs": {"act_type": "tanh"}, 
      "inputs": [[370, 0, 0]]
    }, 
    {
      "op": "elemwise_mul", 
      "name": "_mul74", 
      "inputs": [[364, 0, 0], [371, 0, 0]]
    }, 
    {
      "op": "FullyConnected", 
      "name": "t12_l1_i2h", 
      "attrs": {"num_hidden": "2048"}, 
      "inputs": [[372, 0, 0], [55, 0, 0], [56, 0, 0]]
    }, 
    {
      "op": "FullyConnected", 
      "name": "t12_l1_h2h", 
      "attrs": {"num_hidden": "2048"}, 
      "inputs": [[359, 0, 0], [59, 0, 0], [60, 0, 0]]
    }, 
    {
      "op": "elemwise_add", 
      "name": "_plus50", 
      "inputs": [[373, 0, 0], [374, 0, 0]]
    }, 
    {
      "op": "SliceChannel", 
      "name": "t12_l1_slice", 
      "attrs": {"num_outputs": "4"}, 
      "inputs": [[375, 0, 0]]
    }, 
    {
      "op": "Activation", 
      "name": "activation128", 
      "attrs": {"act_type": "sigmoid"}, 
      "inputs": [[376, 3, 0]]
    }, 
    {
      "op": "Activation", 
      "name": "activation127", 
      "attrs": {"act_type": "sigmoid"}, 
      "inputs": [[376, 2, 0]]
    }, 
    {
      "op": "elemwise_mul", 
      "name": "_mul75", 
      "inputs": [[378, 0, 0], [357, 0, 0]]
    }, 
    {
      "op": "Activation", 
      "name": "activation125", 
      "attrs": {"act_type": "sigmoid"}, 
      "inputs": [[376, 0, 0]]
    }, 
    {
      "op": "Activation", 
      "name": "activation126", 
      "attrs": {"act_type": "tanh"}, 
      "inputs": [[376, 1, 0]]
    }, 
    {
      "op": "elemwise_mul", 
      "name": "_mul76", 
      "inputs": [[380, 0, 0], [381, 0, 0]]
    }, 
    {
      "op": "elemwise_add", 
      "name": "_plus51", 
      "inputs": [[379, 0, 0], [382, 0, 0]]
    }, 
    {
      "op": "Activation", 
      "name": "activation129", 
      "attrs": {"act_type": "tanh"}, 
      "inputs": [[383, 0, 0]]
    }, 
    {
      "op": "elemwise_mul", 
      "name": "_mul77", 
      "inputs": [[377, 0, 0], [384, 0, 0]]
    }, 
    {
      "op": "FullyConnected", 
      "name": "t13_l0_i2h", 
      "attrs": {"num_hidden": "2048"}, 
      "inputs": [[35, 13, 0], [36, 0, 0], [37, 0, 0]]
    }, 
    {
      "op": "FullyConnected", 
      "name": "t13_l0_h2h", 
      "attrs": {"num_hidden": "2048"}, 
      "inputs": [[372, 0, 0], [40, 0, 0], [41, 0, 0]]
    }, 
    {
      "op": "elemwise_add", 
      "name": "_plus52", 
      "inputs": [[386, 0, 0], [387, 0, 0]]
    }, 
    {
      "op": "SliceChannel", 
      "name": "t13_l0_slice", 
      "attrs": {"num_outputs": "4"}, 
      "inputs": [[388, 0, 0]]
    }, 
    {
      "op": "Activation", 
      "name": "activation133", 
      "attrs": {"act_type": "sigmoid"}, 
      "inputs": [[389, 3, 0]]
    }, 
    {
      "op": "Activation", 
      "name": "activation132", 
      "attrs": {"act_type": "sigmoid"}, 
      "inputs": [[389, 2, 0]]
    }, 
    {
      "op": "elemwise_mul", 
      "name": "_mul78", 
      "inputs": [[391, 0, 0], [370, 0, 0]]
    }, 
    {
      "op": "Activation", 
      "name": "activation130", 
      "attrs": {"act_type": "sigmoid"}, 
      "inputs": [[389, 0, 0]]
    }, 
    {
      "op": "Activation", 
      "name": "activation131", 
      "attrs": {"act_type": "tanh"}, 
      "inputs": [[389, 1, 0]]
    }, 
    {
      "op": "elemwise_mul", 
      "name": "_mul79", 
      "inputs": [[393, 0, 0], [394, 0, 0]]
    }, 
    {
      "op": "elemwise_add", 
      "name": "_plus53", 
      "inputs": [[392, 0, 0], [395, 0, 0]]
    }, 
    {
      "op": "Activation", 
      "name": "activation134", 
      "attrs": {"act_type": "tanh"}, 
      "inputs": [[396, 0, 0]]
    }, 
    {
      "op": "elemwise_mul", 
      "name": "_mul80", 
      "inputs": [[390, 0, 0], [397, 0, 0]]
    }, 
    {
      "op": "FullyConnected", 
      "name": "t13_l1_i2h", 
      "attrs": {"num_hidden": "2048"}, 
      "inputs": [[398, 0, 0], [55, 0, 0], [56, 0, 0]]
    }, 
    {
      "op": "FullyConnected", 
      "name": "t13_l1_h2h", 
      "attrs": {"num_hidden": "2048"}, 
      "inputs": [[385, 0, 0], [59, 0, 0], [60, 0, 0]]
    }, 
    {
      "op": "elemwise_add", 
      "name": "_plus54", 
      "inputs": [[399, 0, 0], [400, 0, 0]]
    }, 
    {
      "op": "SliceChannel", 
      "name": "t13_l1_slice", 
      "attrs": {"num_outputs": "4"}, 
      "inputs": [[401, 0, 0]]
    }, 
    {
      "op": "Activation", 
      "name": "activation138", 
      "attrs": {"act_type": "sigmoid"}, 
      "inputs": [[402, 3, 0]]
    }, 
    {
      "op": "Activation", 
      "name": "activation137", 
      "attrs": {"act_type": "sigmoid"}, 
      "inputs": [[402, 2, 0]]
    }, 
    {
      "op": "elemwise_mul", 
      "name": "_mul81", 
      "inputs": [[404, 0, 0], [383, 0, 0]]
    }, 
    {
      "op": "Activation", 
      "name": "activation135", 
      "attrs": {"act_type": "sigmoid"}, 
      "inputs": [[402, 0, 0]]
    }, 
    {
      "op": "Activation", 
      "name": "activation136", 
      "attrs": {"act_type": "tanh"}, 
      "inputs": [[402, 1, 0]]
    }, 
    {
      "op": "elemwise_mul", 
      "name": "_mul82", 
      "inputs": [[406, 0, 0], [407, 0, 0]]
    }, 
    {
      "op": "elemwise_add", 
      "name": "_plus55", 
      "inputs": [[405, 0, 0], [408, 0, 0]]
    }, 
    {
      "op": "Activation", 
      "name": "activation139", 
      "attrs": {"act_type": "tanh"}, 
      "inputs": [[409, 0, 0]]
    }, 
    {
      "op": "elemwise_mul", 
      "name": "_mul83", 
      "inputs": [[403, 0, 0], [410, 0, 0]]
    }, 
    {
      "op": "FullyConnected", 
      "name": "t14_l0_i2h", 
      "attrs": {"num_hidden": "2048"}, 
      "inputs": [[35, 14, 0], [36, 0, 0], [37, 0, 0]]
    }, 
    {
      "op": "FullyConnected", 
      "name": "t14_l0_h2h", 
      "attrs": {"num_hidden": "2048"}, 
      "inputs": [[398, 0, 0], [40, 0, 0], [41, 0, 0]]
    }, 
    {
      "op": "elemwise_add", 
      "name": "_plus56", 
      "inputs": [[412, 0, 0], [413, 0, 0]]
    }, 
    {
      "op": "SliceChannel", 
      "name": "t14_l0_slice", 
      "attrs": {"num_outputs": "4"}, 
      "inputs": [[414, 0, 0]]
    }, 
    {
      "op": "Activation", 
      "name": "activation143", 
      "attrs": {"act_type": "sigmoid"}, 
      "inputs": [[415, 3, 0]]
    }, 
    {
      "op": "Activation", 
      "name": "activation142", 
      "attrs": {"act_type": "sigmoid"}, 
      "inputs": [[415, 2, 0]]
    }, 
    {
      "op": "elemwise_mul", 
      "name": "_mul84", 
      "inputs": [[417, 0, 0], [396, 0, 0]]
    }, 
    {
      "op": "Activation", 
      "name": "activation140", 
      "attrs": {"act_type": "sigmoid"}, 
      "inputs": [[415, 0, 0]]
    }, 
    {
      "op": "Activation", 
      "name": "activation141", 
      "attrs": {"act_type": "tanh"}, 
      "inputs": [[415, 1, 0]]
    }, 
    {
      "op": "elemwise_mul", 
      "name": "_mul85", 
      "inputs": [[419, 0, 0], [420, 0, 0]]
    }, 
    {
      "op": "elemwise_add", 
      "name": "_plus57", 
      "inputs": [[418, 0, 0], [421, 0, 0]]
    }, 
    {
      "op": "Activation", 
      "name": "activation144", 
      "attrs": {"act_type": "tanh"}, 
      "inputs": [[422, 0, 0]]
    }, 
    {
      "op": "elemwise_mul", 
      "name": "_mul86", 
      "inputs": [[416, 0, 0], [423, 0, 0]]
    }, 
    {
      "op": "FullyConnected", 
      "name": "t14_l1_i2h", 
      "attrs": {"num_hidden": "2048"}, 
      "inputs": [[424, 0, 0], [55, 0, 0], [56, 0, 0]]
    }, 
    {
      "op": "FullyConnected", 
      "name": "t14_l1_h2h", 
      "attrs": {"num_hidden": "2048"}, 
      "inputs": [[411, 0, 0], [59, 0, 0], [60, 0, 0]]
    }, 
    {
      "op": "elemwise_add", 
      "name": "_plus58", 
      "inputs": [[425, 0, 0], [426, 0, 0]]
    }, 
    {
      "op": "SliceChannel", 
      "name": "t14_l1_slice", 
      "attrs": {"num_outputs": "4"}, 
      "inputs": [[427, 0, 0]]
    }, 
    {
      "op": "Activation", 
      "name": "activation148", 
      "attrs": {"act_type": "sigmoid"}, 
      "inputs": [[428, 3, 0]]
    }, 
    {
      "op": "Activation", 
      "name": "activation147", 
      "attrs": {"act_type": "sigmoid"}, 
      "inputs": [[428, 2, 0]]
    }, 
    {
      "op": "elemwise_mul", 
      "name": "_mul87", 
      "inputs": [[430, 0, 0], [409, 0, 0]]
    }, 
    {
      "op": "Activation", 
      "name": "activation145", 
      "attrs": {"act_type": "sigmoid"}, 
      "inputs": [[428, 0, 0]]
    }, 
    {
      "op": "Activation", 
      "name": "activation146", 
      "attrs": {"act_type": "tanh"}, 
      "inputs": [[428, 1, 0]]
    }, 
    {
      "op": "elemwise_mul", 
      "name": "_mul88", 
      "inputs": [[432, 0, 0], [433, 0, 0]]
    }, 
    {
      "op": "elemwise_add", 
      "name": "_plus59", 
      "inputs": [[431, 0, 0], [434, 0, 0]]
    }, 
    {
      "op": "Activation", 
      "name": "activation149", 
      "attrs": {"act_type": "tanh"}, 
      "inputs": [[435, 0, 0]]
    }, 
    {
      "op": "elemwise_mul", 
      "name": "_mul89", 
      "inputs": [[429, 0, 0], [436, 0, 0]]
    }, 
    {
      "op": "FullyConnected", 
      "name": "t15_l0_i2h", 
      "attrs": {"num_hidden": "2048"}, 
      "inputs": [[35, 15, 0], [36, 0, 0], [37, 0, 0]]
    }, 
    {
      "op": "FullyConnected", 
      "name": "t15_l0_h2h", 
      "attrs": {"num_hidden": "2048"}, 
      "inputs": [[424, 0, 0], [40, 0, 0], [41, 0, 0]]
    }, 
    {
      "op": "elemwise_add", 
      "name": "_plus60", 
      "inputs": [[438, 0, 0], [439, 0, 0]]
    }, 
    {
      "op": "SliceChannel", 
      "name": "t15_l0_slice", 
      "attrs": {"num_outputs": "4"}, 
      "inputs": [[440, 0, 0]]
    }, 
    {
      "op": "Activation", 
      "name": "activation153", 
      "attrs": {"act_type": "sigmoid"}, 
      "inputs": [[441, 3, 0]]
    }, 
    {
      "op": "Activation", 
      "name": "activation152", 
      "attrs": {"act_type": "sigmoid"}, 
      "inputs": [[441, 2, 0]]
    }, 
    {
      "op": "elemwise_mul", 
      "name": "_mul90", 
      "inputs": [[443, 0, 0], [422, 0, 0]]
    }, 
    {
      "op": "Activation", 
      "name": "activation150", 
      "attrs": {"act_type": "sigmoid"}, 
      "inputs": [[441, 0, 0]]
    }, 
    {
      "op": "Activation", 
      "name": "activation151", 
      "attrs": {"act_type": "tanh"}, 
      "inputs": [[441, 1, 0]]
    }, 
    {
      "op": "elemwise_mul", 
      "name": "_mul91", 
      "inputs": [[445, 0, 0], [446, 0, 0]]
    }, 
    {
      "op": "elemwise_add", 
      "name": "_plus61", 
      "inputs": [[444, 0, 0], [447, 0, 0]]
    }, 
    {
      "op": "Activation", 
      "name": "activation154", 
      "attrs": {"act_type": "tanh"}, 
      "inputs": [[448, 0, 0]]
    }, 
    {
      "op": "elemwise_mul", 
      "name": "_mul92", 
      "inputs": [[442, 0, 0], [449, 0, 0]]
    }, 
    {
      "op": "FullyConnected", 
      "name": "t15_l1_i2h", 
      "attrs": {"num_hidden": "2048"}, 
      "inputs": [[450, 0, 0], [55, 0, 0], [56, 0, 0]]
    }, 
    {
      "op": "FullyConnected", 
      "name": "t15_l1_h2h", 
      "attrs": {"num_hidden": "2048"}, 
      "inputs": [[437, 0, 0], [59, 0, 0], [60, 0, 0]]
    }, 
    {
      "op": "elemwise_add", 
      "name": "_plus62", 
      "inputs": [[451, 0, 0], [452, 0, 0]]
    }, 
    {
      "op": "SliceChannel", 
      "name": "t15_l1_slice", 
      "attrs": {"num_outputs": "4"}, 
      "inputs": [[453, 0, 0]]
    }, 
    {
      "op": "Activation", 
      "name": "activation158", 
      "attrs": {"act_type": "sigmoid"}, 
      "inputs": [[454, 3, 0]]
    }, 
    {
      "op": "Activation", 
      "name": "activation157", 
      "attrs": {"act_type": "sigmoid"}, 
      "inputs": [[454, 2, 0]]
    }, 
    {
      "op": "elemwise_mul", 
      "name": "_mul93", 
      "inputs": [[456, 0, 0], [435, 0, 0]]
    }, 
    {
      "op": "Activation", 
      "name": "activation155", 
      "attrs": {"act_type": "sigmoid"}, 
      "inputs": [[454, 0, 0]]
    }, 
    {
      "op": "Activation", 
      "name": "activation156", 
      "attrs": {"act_type": "tanh"}, 
      "inputs": [[454, 1, 0]]
    }, 
    {
      "op": "elemwise_mul", 
      "name": "_mul94", 
      "inputs": [[458, 0, 0], [459, 0, 0]]
    }, 
    {
      "op": "elemwise_add", 
      "name": "_plus63", 
      "inputs": [[457, 0, 0], [460, 0, 0]]
    }, 
    {
      "op": "Activation", 
      "name": "activation159", 
      "attrs": {"act_type": "tanh"}, 
      "inputs": [[461, 0, 0]]
    }, 
    {
      "op": "elemwise_mul", 
      "name": "_mul95", 
      "inputs": [[455, 0, 0], [462, 0, 0]]
    }, 
    {
      "op": "FullyConnected", 
      "name": "t16_l0_i2h", 
      "attrs": {"num_hidden": "2048"}, 
      "inputs": [[35, 16, 0], [36, 0, 0], [37, 0, 0]]
    }, 
    {
      "op": "FullyConnected", 
      "name": "t16_l0_h2h", 
      "attrs": {"num_hidden": "2048"}, 
      "inputs": [[450, 0, 0], [40, 0, 0], [41, 0, 0]]
    }, 
    {
      "op": "elemwise_add", 
      "name": "_plus64", 
      "inputs": [[464, 0, 0], [465, 0, 0]]
    }, 
    {
      "op": "SliceChannel", 
      "name": "t16_l0_slice", 
      "attrs": {"num_outputs": "4"}, 
      "inputs": [[466, 0, 0]]
    }, 
    {
      "op": "Activation", 
      "name": "activation163", 
      "attrs": {"act_type": "sigmoid"}, 
      "inputs": [[467, 3, 0]]
    }, 
    {
      "op": "Activation", 
      "name": "activation162", 
      "attrs": {"act_type": "sigmoid"}, 
      "inputs": [[467, 2, 0]]
    }, 
    {
      "op": "elemwise_mul", 
      "name": "_mul96", 
      "inputs": [[469, 0, 0], [448, 0, 0]]
    }, 
    {
      "op": "Activation", 
      "name": "activation160", 
      "attrs": {"act_type": "sigmoid"}, 
      "inputs": [[467, 0, 0]]
    }, 
    {
      "op": "Activation", 
      "name": "activation161", 
      "attrs": {"act_type": "tanh"}, 
      "inputs": [[467, 1, 0]]
    }, 
    {
      "op": "elemwise_mul", 
      "name": "_mul97", 
      "inputs": [[471, 0, 0], [472, 0, 0]]
    }, 
    {
      "op": "elemwise_add", 
      "name": "_plus65", 
      "inputs": [[470, 0, 0], [473, 0, 0]]
    }, 
    {
      "op": "Activation", 
      "name": "activation164", 
      "attrs": {"act_type": "tanh"}, 
      "inputs": [[474, 0, 0]]
    }, 
    {
      "op": "elemwise_mul", 
      "name": "_mul98", 
      "inputs": [[468, 0, 0], [475, 0, 0]]
    }, 
    {
      "op": "FullyConnected", 
      "name": "t16_l1_i2h", 
      "attrs": {"num_hidden": "2048"}, 
      "inputs": [[476, 0, 0], [55, 0, 0], [56, 0, 0]]
    }, 
    {
      "op": "FullyConnected", 
      "name": "t16_l1_h2h", 
      "attrs": {"num_hidden": "2048"}, 
      "inputs": [[463, 0, 0], [59, 0, 0], [60, 0, 0]]
    }, 
    {
      "op": "elemwise_add", 
      "name": "_plus66", 
      "inputs": [[477, 0, 0], [478, 0, 0]]
    }, 
    {
      "op": "SliceChannel", 
      "name": "t16_l1_slice", 
      "attrs": {"num_outputs": "4"}, 
      "inputs": [[479, 0, 0]]
    }, 
    {
      "op": "Activation", 
      "name": "activation168", 
      "attrs": {"act_type": "sigmoid"}, 
      "inputs": [[480, 3, 0]]
    }, 
    {
      "op": "Activation", 
      "name": "activation167", 
      "attrs": {"act_type": "sigmoid"}, 
      "inputs": [[480, 2, 0]]
    }, 
    {
      "op": "elemwise_mul", 
      "name": "_mul99", 
      "inputs": [[482, 0, 0], [461, 0, 0]]
    }, 
    {
      "op": "Activation", 
      "name": "activation165", 
      "attrs": {"act_type": "sigmoid"}, 
      "inputs": [[480, 0, 0]]
    }, 
    {
      "op": "Activation", 
      "name": "activation166", 
      "attrs": {"act_type": "tanh"}, 
      "inputs": [[480, 1, 0]]
    }, 
    {
      "op": "elemwise_mul", 
      "name": "_mul100", 
      "inputs": [[484, 0, 0], [485, 0, 0]]
    }, 
    {
      "op": "elemwise_add", 
      "name": "_plus67", 
      "inputs": [[483, 0, 0], [486, 0, 0]]
    }, 
    {
      "op": "Activation", 
      "name": "activation169", 
      "attrs": {"act_type": "tanh"}, 
      "inputs": [[487, 0, 0]]
    }, 
    {
      "op": "elemwise_mul", 
      "name": "_mul101", 
      "inputs": [[481, 0, 0], [488, 0, 0]]
    }, 
    {
      "op": "FullyConnected", 
      "name": "t17_l0_i2h", 
      "attrs": {"num_hidden": "2048"}, 
      "inputs": [[35, 17, 0], [36, 0, 0], [37, 0, 0]]
    }, 
    {
      "op": "FullyConnected", 
      "name": "t17_l0_h2h", 
      "attrs": {"num_hidden": "2048"}, 
      "inputs": [[476, 0, 0], [40, 0, 0], [41, 0, 0]]
    }, 
    {
      "op": "elemwise_add", 
      "name": "_plus68", 
      "inputs": [[490, 0, 0], [491, 0, 0]]
    }, 
    {
      "op": "SliceChannel", 
      "name": "t17_l0_slice", 
      "attrs": {"num_outputs": "4"}, 
      "inputs": [[492, 0, 0]]
    }, 
    {
      "op": "Activation", 
      "name": "activation173", 
      "attrs": {"act_type": "sigmoid"}, 
      "inputs": [[493, 3, 0]]
    }, 
    {
      "op": "Activation", 
      "name": "activation172", 
      "attrs": {"act_type": "sigmoid"}, 
      "inputs": [[493, 2, 0]]
    }, 
    {
      "op": "elemwise_mul", 
      "name": "_mul102", 
      "inputs": [[495, 0, 0], [474, 0, 0]]
    }, 
    {
      "op": "Activation", 
      "name": "activation170", 
      "attrs": {"act_type": "sigmoid"}, 
      "inputs": [[493, 0, 0]]
    }, 
    {
      "op": "Activation", 
      "name": "activation171", 
      "attrs": {"act_type": "tanh"}, 
      "inputs": [[493, 1, 0]]
    }, 
    {
      "op": "elemwise_mul", 
      "name": "_mul103", 
      "inputs": [[497, 0, 0], [498, 0, 0]]
    }, 
    {
      "op": "elemwise_add", 
      "name": "_plus69", 
      "inputs": [[496, 0, 0], [499, 0, 0]]
    }, 
    {
      "op": "Activation", 
      "name": "activation174", 
      "attrs": {"act_type": "tanh"}, 
      "inputs": [[500, 0, 0]]
    }, 
    {
      "op": "elemwise_mul", 
      "name": "_mul104", 
      "inputs": [[494, 0, 0], [501, 0, 0]]
    }, 
    {
      "op": "FullyConnected", 
      "name": "t17_l1_i2h", 
      "attrs": {"num_hidden": "2048"}, 
      "inputs": [[502, 0, 0], [55, 0, 0], [56, 0, 0]]
    }, 
    {
      "op": "FullyConnected", 
      "name": "t17_l1_h2h", 
      "attrs": {"num_hidden": "2048"}, 
      "inputs": [[489, 0, 0], [59, 0, 0], [60, 0, 0]]
    }, 
    {
      "op": "elemwise_add", 
      "name": "_plus70", 
      "inputs": [[503, 0, 0], [504, 0, 0]]
    }, 
    {
      "op": "SliceChannel", 
      "name": "t17_l1_slice", 
      "attrs": {"num_outputs": "4"}, 
      "inputs": [[505, 0, 0]]
    }, 
    {
      "op": "Activation", 
      "name": "activation178", 
      "attrs": {"act_type": "sigmoid"}, 
      "inputs": [[506, 3, 0]]
    }, 
    {
      "op": "Activation", 
      "name": "activation177", 
      "attrs": {"act_type": "sigmoid"}, 
      "inputs": [[506, 2, 0]]
    }, 
    {
      "op": "elemwise_mul", 
      "name": "_mul105", 
      "inputs": [[508, 0, 0], [487, 0, 0]]
    }, 
    {
      "op": "Activation", 
      "name": "activation175", 
      "attrs": {"act_type": "sigmoid"}, 
      "inputs": [[506, 0, 0]]
    }, 
    {
      "op": "Activation", 
      "name": "activation176", 
      "attrs": {"act_type": "tanh"}, 
      "inputs": [[506, 1, 0]]
    }, 
    {
      "op": "elemwise_mul", 
      "name": "_mul106", 
      "inputs": [[510, 0, 0], [511, 0, 0]]
    }, 
    {
      "op": "elemwise_add", 
      "name": "_plus71", 
      "inputs": [[509, 0, 0], [512, 0, 0]]
    }, 
    {
      "op": "Activation", 
      "name": "activation179", 
      "attrs": {"act_type": "tanh"}, 
      "inputs": [[513, 0, 0]]
    }, 
    {
      "op": "elemwise_mul", 
      "name": "_mul107", 
      "inputs": [[507, 0, 0], [514, 0, 0]]
    }, 
    {
      "op": "FullyConnected", 
      "name": "t18_l0_i2h", 
      "attrs": {"num_hidden": "2048"}, 
      "inputs": [[35, 18, 0], [36, 0, 0], [37, 0, 0]]
    }, 
    {
      "op": "FullyConnected", 
      "name": "t18_l0_h2h", 
      "attrs": {"num_hidden": "2048"}, 
      "inputs": [[502, 0, 0], [40, 0, 0], [41, 0, 0]]
    }, 
    {
      "op": "elemwise_add", 
      "name": "_plus72", 
      "inputs": [[516, 0, 0], [517, 0, 0]]
    }, 
    {
      "op": "SliceChannel", 
      "name": "t18_l0_slice", 
      "attrs": {"num_outputs": "4"}, 
      "inputs": [[518, 0, 0]]
    }, 
    {
      "op": "Activation", 
      "name": "activation183", 
      "attrs": {"act_type": "sigmoid"}, 
      "inputs": [[519, 3, 0]]
    }, 
    {
      "op": "Activation", 
      "name": "activation182", 
      "attrs": {"act_type": "sigmoid"}, 
      "inputs": [[519, 2, 0]]
    }, 
    {
      "op": "elemwise_mul", 
      "name": "_mul108", 
      "inputs": [[521, 0, 0], [500, 0, 0]]
    }, 
    {
      "op": "Activation", 
      "name": "activation180", 
      "attrs": {"act_type": "sigmoid"}, 
      "inputs": [[519, 0, 0]]
    }, 
    {
      "op": "Activation", 
      "name": "activation181", 
      "attrs": {"act_type": "tanh"}, 
      "inputs": [[519, 1, 0]]
    }, 
    {
      "op": "elemwise_mul", 
      "name": "_mul109", 
      "inputs": [[523, 0, 0], [524, 0, 0]]
    }, 
    {
      "op": "elemwise_add", 
      "name": "_plus73", 
      "inputs": [[522, 0, 0], [525, 0, 0]]
    }, 
    {
      "op": "Activation", 
      "name": "activation184", 
      "attrs": {"act_type": "tanh"}, 
      "inputs": [[526, 0, 0]]
    }, 
    {
      "op": "elemwise_mul", 
      "name": "_mul110", 
      "inputs": [[520, 0, 0], [527, 0, 0]]
    }, 
    {
      "op": "FullyConnected", 
      "name": "t18_l1_i2h", 
      "attrs": {"num_hidden": "2048"}, 
      "inputs": [[528, 0, 0], [55, 0, 0], [56, 0, 0]]
    }, 
    {
      "op": "FullyConnected", 
      "name": "t18_l1_h2h", 
      "attrs": {"num_hidden": "2048"}, 
      "inputs": [[515, 0, 0], [59, 0, 0], [60, 0, 0]]
    }, 
    {
      "op": "elemwise_add", 
      "name": "_plus74", 
      "inputs": [[529, 0, 0], [530, 0, 0]]
    }, 
    {
      "op": "SliceChannel", 
      "name": "t18_l1_slice", 
      "attrs": {"num_outputs": "4"}, 
      "inputs": [[531, 0, 0]]
    }, 
    {
      "op": "Activation", 
      "name": "activation188", 
      "attrs": {"act_type": "sigmoid"}, 
      "inputs": [[532, 3, 0]]
    }, 
    {
      "op": "Activation", 
      "name": "activation187", 
      "attrs": {"act_type": "sigmoid"}, 
      "inputs": [[532, 2, 0]]
    }, 
    {
      "op": "elemwise_mul", 
      "name": "_mul111", 
      "inputs": [[534, 0, 0], [513, 0, 0]]
    }, 
    {
      "op": "Activation", 
      "name": "activation185", 
      "attrs": {"act_type": "sigmoid"}, 
      "inputs": [[532, 0, 0]]
    }, 
    {
      "op": "Activation", 
      "name": "activation186", 
      "attrs": {"act_type": "tanh"}, 
      "inputs": [[532, 1, 0]]
    }, 
    {
      "op": "elemwise_mul", 
      "name": "_mul112", 
      "inputs": [[536, 0, 0], [537, 0, 0]]
    }, 
    {
      "op": "elemwise_add", 
      "name": "_plus75", 
      "inputs": [[535, 0, 0], [538, 0, 0]]
    }, 
    {
      "op": "Activation", 
      "name": "activation189", 
      "attrs": {"act_type": "tanh"}, 
      "inputs": [[539, 0, 0]]
    }, 
    {
      "op": "elemwise_mul", 
      "name": "_mul113", 
      "inputs": [[533, 0, 0], [540, 0, 0]]
    }, 
    {
      "op": "FullyConnected", 
      "name": "t19_l0_i2h", 
      "attrs": {"num_hidden": "2048"}, 
      "inputs": [[35, 19, 0], [36, 0, 0], [37, 0, 0]]
    }, 
    {
      "op": "FullyConnected", 
      "name": "t19_l0_h2h", 
      "attrs": {"num_hidden": "2048"}, 
      "inputs": [[528, 0, 0], [40, 0, 0], [41, 0, 0]]
    }, 
    {
      "op": "elemwise_add", 
      "name": "_plus76", 
      "inputs": [[542, 0, 0], [543, 0, 0]]
    }, 
    {
      "op": "SliceChannel", 
      "name": "t19_l0_slice", 
      "attrs": {"num_outputs": "4"}, 
      "inputs": [[544, 0, 0]]
    }, 
    {
      "op": "Activation", 
      "name": "activation193", 
      "attrs": {"act_type": "sigmoid"}, 
      "inputs": [[545, 3, 0]]
    }, 
    {
      "op": "Activation", 
      "name": "activation192", 
      "attrs": {"act_type": "sigmoid"}, 
      "inputs": [[545, 2, 0]]
    }, 
    {
      "op": "elemwise_mul", 
      "name": "_mul114", 
      "inputs": [[547, 0, 0], [526, 0, 0]]
    }, 
    {
      "op": "Activation", 
      "name": "activation190", 
      "attrs": {"act_type": "sigmoid"}, 
      "inputs": [[545, 0, 0]]
    }, 
    {
      "op": "Activation", 
      "name": "activation191", 
      "attrs": {"act_type": "tanh"}, 
      "inputs": [[545, 1, 0]]
    }, 
    {
      "op": "elemwise_mul", 
      "name": "_mul115", 
      "inputs": [[549, 0, 0], [550, 0, 0]]
    }, 
    {
      "op": "elemwise_add", 
      "name": "_plus77", 
      "inputs": [[548, 0, 0], [551, 0, 0]]
    }, 
    {
      "op": "Activation", 
      "name": "activation194", 
      "attrs": {"act_type": "tanh"}, 
      "inputs": [[552, 0, 0]]
    }, 
    {
      "op": "elemwise_mul", 
      "name": "_mul116", 
      "inputs": [[546, 0, 0], [553, 0, 0]]
    }, 
    {
      "op": "FullyConnected", 
      "name": "t19_l1_i2h", 
      "attrs": {"num_hidden": "2048"}, 
      "inputs": [[554, 0, 0], [55, 0, 0], [56, 0, 0]]
    }, 
    {
      "op": "FullyConnected", 
      "name": "t19_l1_h2h", 
      "attrs": {"num_hidden": "2048"}, 
      "inputs": [[541, 0, 0], [59, 0, 0], [60, 0, 0]]
    }, 
    {
      "op": "elemwise_add", 
      "name": "_plus78", 
      "inputs": [[555, 0, 0], [556, 0, 0]]
    }, 
    {
      "op": "SliceChannel", 
      "name": "t19_l1_slice", 
      "attrs": {"num_outputs": "4"}, 
      "inputs": [[557, 0, 0]]
    }, 
    {
      "op": "Activation", 
      "name": "activation198", 
      "attrs": {"act_type": "sigmoid"}, 
      "inputs": [[558, 3, 0]]
    }, 
    {
      "op": "Activation", 
      "name": "activation197", 
      "attrs": {"act_type": "sigmoid"}, 
      "inputs": [[558, 2, 0]]
    }, 
    {
      "op": "elemwise_mul", 
      "name": "_mul117", 
      "inputs": [[560, 0, 0], [539, 0, 0]]
    }, 
    {
      "op": "Activation", 
      "name": "activation195", 
      "attrs": {"act_type": "sigmoid"}, 
      "inputs": [[558, 0, 0]]
    }, 
    {
      "op": "Activation", 
      "name": "activation196", 
      "attrs": {"act_type": "tanh"}, 
      "inputs": [[558, 1, 0]]
    }, 
    {
      "op": "elemwise_mul", 
      "name": "_mul118", 
      "inputs": [[562, 0, 0], [563, 0, 0]]
    }, 
    {
      "op": "elemwise_add", 
      "name": "_plus79", 
      "inputs": [[561, 0, 0], [564, 0, 0]]
    }, 
    {
      "op": "Activation", 
      "name": "activation199", 
      "attrs": {"act_type": "tanh"}, 
      "inputs": [[565, 0, 0]]
    }, 
    {
      "op": "elemwise_mul", 
      "name": "_mul119", 
      "inputs": [[559, 0, 0], [566, 0, 0]]
    }, 
    {
      "op": "FullyConnected", 
      "name": "t20_l0_i2h", 
      "attrs": {"num_hidden": "2048"}, 
      "inputs": [[35, 20, 0], [36, 0, 0], [37, 0, 0]]
    }, 
    {
      "op": "FullyConnected", 
      "name": "t20_l0_h2h", 
      "attrs": {"num_hidden": "2048"}, 
      "inputs": [[554, 0, 0], [40, 0, 0], [41, 0, 0]]
    }, 
    {
      "op": "elemwise_add", 
      "name": "_plus80", 
      "inputs": [[568, 0, 0], [569, 0, 0]]
    }, 
    {
      "op": "SliceChannel", 
      "name": "t20_l0_slice", 
      "attrs": {"num_outputs": "4"}, 
      "inputs": [[570, 0, 0]]
    }, 
    {
      "op": "Activation", 
      "name": "activation203", 
      "attrs": {"act_type": "sigmoid"}, 
      "inputs": [[571, 3, 0]]
    }, 
    {
      "op": "Activation", 
      "name": "activation202", 
      "attrs": {"act_type": "sigmoid"}, 
      "inputs": [[571, 2, 0]]
    }, 
    {
      "op": "elemwise_mul", 
      "name": "_mul120", 
      "inputs": [[573, 0, 0], [552, 0, 0]]
    }, 
    {
      "op": "Activation", 
      "name": "activation200", 
      "attrs": {"act_type": "sigmoid"}, 
      "inputs": [[571, 0, 0]]
    }, 
    {
      "op": "Activation", 
      "name": "activation201", 
      "attrs": {"act_type": "tanh"}, 
      "inputs": [[571, 1, 0]]
    }, 
    {
      "op": "elemwise_mul", 
      "name": "_mul121", 
      "inputs": [[575, 0, 0], [576, 0, 0]]
    }, 
    {
      "op": "elemwise_add", 
      "name": "_plus81", 
      "inputs": [[574, 0, 0], [577, 0, 0]]
    }, 
    {
      "op": "Activation", 
      "name": "activation204", 
      "attrs": {"act_type": "tanh"}, 
      "inputs": [[578, 0, 0]]
    }, 
    {
      "op": "elemwise_mul", 
      "name": "_mul122", 
      "inputs": [[572, 0, 0], [579, 0, 0]]
    }, 
    {
      "op": "FullyConnected", 
      "name": "t20_l1_i2h", 
      "attrs": {"num_hidden": "2048"}, 
      "inputs": [[580, 0, 0], [55, 0, 0], [56, 0, 0]]
    }, 
    {
      "op": "FullyConnected", 
      "name": "t20_l1_h2h", 
      "attrs": {"num_hidden": "2048"}, 
      "inputs": [[567, 0, 0], [59, 0, 0], [60, 0, 0]]
    }, 
    {
      "op": "elemwise_add", 
      "name": "_plus82", 
      "inputs": [[581, 0, 0], [582, 0, 0]]
    }, 
    {
      "op": "SliceChannel", 
      "name": "t20_l1_slice", 
      "attrs": {"num_outputs": "4"}, 
      "inputs": [[583, 0, 0]]
    }, 
    {
      "op": "Activation", 
      "name": "activation208", 
      "attrs": {"act_type": "sigmoid"}, 
      "inputs": [[584, 3, 0]]
    }, 
    {
      "op": "Activation", 
      "name": "activation207", 
      "attrs": {"act_type": "sigmoid"}, 
      "inputs": [[584, 2, 0]]
    }, 
    {
      "op": "elemwise_mul", 
      "name": "_mul123", 
      "inputs": [[586, 0, 0], [565, 0, 0]]
    }, 
    {
      "op": "Activation", 
      "name": "activation205", 
      "attrs": {"act_type": "sigmoid"}, 
      "inputs": [[584, 0, 0]]
    }, 
    {
      "op": "Activation", 
      "name": "activation206", 
      "attrs": {"act_type": "tanh"}, 
      "inputs": [[584, 1, 0]]
    }, 
    {
      "op": "elemwise_mul", 
      "name": "_mul124", 
      "inputs": [[588, 0, 0], [589, 0, 0]]
    }, 
    {
      "op": "elemwise_add", 
      "name": "_plus83", 
      "inputs": [[587, 0, 0], [590, 0, 0]]
    }, 
    {
      "op": "Activation", 
      "name": "activation209", 
      "attrs": {"act_type": "tanh"}, 
      "inputs": [[591, 0, 0]]
    }, 
    {
      "op": "elemwise_mul", 
      "name": "_mul125", 
      "inputs": [[585, 0, 0], [592, 0, 0]]
    }, 
    {
      "op": "FullyConnected", 
      "name": "t21_l0_i2h", 
      "attrs": {"num_hidden": "2048"}, 
      "inputs": [[35, 21, 0], [36, 0, 0], [37, 0, 0]]
    }, 
    {
      "op": "FullyConnected", 
      "name": "t21_l0_h2h", 
      "attrs": {"num_hidden": "2048"}, 
      "inputs": [[580, 0, 0], [40, 0, 0], [41, 0, 0]]
    }, 
    {
      "op": "elemwise_add", 
      "name": "_plus84", 
      "inputs": [[594, 0, 0], [595, 0, 0]]
    }, 
    {
      "op": "SliceChannel", 
      "name": "t21_l0_slice", 
      "attrs": {"num_outputs": "4"}, 
      "inputs": [[596, 0, 0]]
    }, 
    {
      "op": "Activation", 
      "name": "activation213", 
      "attrs": {"act_type": "sigmoid"}, 
      "inputs": [[597, 3, 0]]
    }, 
    {
      "op": "Activation", 
      "name": "activation212", 
      "attrs": {"act_type": "sigmoid"}, 
      "inputs": [[597, 2, 0]]
    }, 
    {
      "op": "elemwise_mul", 
      "name": "_mul126", 
      "inputs": [[599, 0, 0], [578, 0, 0]]
    }, 
    {
      "op": "Activation", 
      "name": "activation210", 
      "attrs": {"act_type": "sigmoid"}, 
      "inputs": [[597, 0, 0]]
    }, 
    {
      "op": "Activation", 
      "name": "activation211", 
      "attrs": {"act_type": "tanh"}, 
      "inputs": [[597, 1, 0]]
    }, 
    {
      "op": "elemwise_mul", 
      "name": "_mul127", 
      "inputs": [[601, 0, 0], [602, 0, 0]]
    }, 
    {
      "op": "elemwise_add", 
      "name": "_plus85", 
      "inputs": [[600, 0, 0], [603, 0, 0]]
    }, 
    {
      "op": "Activation", 
      "name": "activation214", 
      "attrs": {"act_type": "tanh"}, 
      "inputs": [[604, 0, 0]]
    }, 
    {
      "op": "elemwise_mul", 
      "name": "_mul128", 
      "inputs": [[598, 0, 0], [605, 0, 0]]
    }, 
    {
      "op": "FullyConnected", 
      "name": "t21_l1_i2h", 
      "attrs": {"num_hidden": "2048"}, 
      "inputs": [[606, 0, 0], [55, 0, 0], [56, 0, 0]]
    }, 
    {
      "op": "FullyConnected", 
      "name": "t21_l1_h2h", 
      "attrs": {"num_hidden": "2048"}, 
      "inputs": [[593, 0, 0], [59, 0, 0], [60, 0, 0]]
    }, 
    {
      "op": "elemwise_add", 
      "name": "_plus86", 
      "inputs": [[607, 0, 0], [608, 0, 0]]
    }, 
    {
      "op": "SliceChannel", 
      "name": "t21_l1_slice", 
      "attrs": {"num_outputs": "4"}, 
      "inputs": [[609, 0, 0]]
    }, 
    {
      "op": "Activation", 
      "name": "activation218", 
      "attrs": {"act_type": "sigmoid"}, 
      "inputs": [[610, 3, 0]]
    }, 
    {
      "op": "Activation", 
      "name": "activation217", 
      "attrs": {"act_type": "sigmoid"}, 
      "inputs": [[610, 2, 0]]
    }, 
    {
      "op": "elemwise_mul", 
      "name": "_mul129", 
      "inputs": [[612, 0, 0], [591, 0, 0]]
    }, 
    {
      "op": "Activation", 
      "name": "activation215", 
      "attrs": {"act_type": "sigmoid"}, 
      "inputs": [[610, 0, 0]]
    }, 
    {
      "op": "Activation", 
      "name": "activation216", 
      "attrs": {"act_type": "tanh"}, 
      "inputs": [[610, 1, 0]]
    }, 
    {
      "op": "elemwise_mul", 
      "name": "_mul130", 
      "inputs": [[614, 0, 0], [615, 0, 0]]
    }, 
    {
      "op": "elemwise_add", 
      "name": "_plus87", 
      "inputs": [[613, 0, 0], [616, 0, 0]]
    }, 
    {
      "op": "Activation", 
      "name": "activation219", 
      "attrs": {"act_type": "tanh"}, 
      "inputs": [[617, 0, 0]]
    }, 
    {
      "op": "elemwise_mul", 
      "name": "_mul131", 
      "inputs": [[611, 0, 0], [618, 0, 0]]
    }, 
    {
      "op": "Concat", 
      "name": "concat0", 
      "attrs": {
        "dim": "0", 
        "num_args": "22"
      }, 
      "inputs": [
        [73, 0, 0], 
        [99, 0, 0], 
        [125, 0, 0], 
        [151, 0, 0], 
        [177, 0, 0], 
        [203, 0, 0], 
        [229, 0, 0], 
        [255, 0, 0], 
        [281, 0, 0], 
        [307, 0, 0], 
        [333, 0, 0], 
        [359, 0, 0], 
        [385, 0, 0], 
        [411, 0, 0], 
        [437, 0, 0], 
        [463, 0, 0], 
        [489, 0, 0], 
        [515, 0, 0], 
        [541, 0, 0], 
        [567, 0, 0], 
        [593, 0, 0], 
        [619, 0, 0]
      ]
    }, 
    {
      "op": "null", 
      "name": "cls_weight", 
      "inputs": []
    }, 
    {
      "op": "null", 
      "name": "cls_bias", 
      "inputs": []
    }, 
    {
      "op": "FullyConnected", 
      "name": "pred", 
      "attrs": {"num_hidden": "28"}, 
      "inputs": [[620, 0, 0], [621, 0, 0], [622, 0, 0]]
    }, 
    {
      "op": "null", 
      "name": "label", 
      "inputs": []
    }, 
    {
      "op": "Reshape", 
      "name": "reshape0", 
      "attrs": {"shape": "(-1,)"}, 
      "inputs": [[624, 0, 0]]
    }, 
    {
      "op": "Cast", 
      "name": "cast0", 
      "attrs": {"dtype": "int32"}, 
      "inputs": [[625, 0, 0]]
    }, 
    {
      "op": "WarpCTC", 
      "name": "warpctc0", 
      "attrs": {
        "input_length": "22", 
        "label_length": "22"
      }, 
      "inputs": [[623, 0, 0], [626, 0, 0]]
    }
  ], 
  "arg_nodes": [
    0, 
    1, 
    2, 
    5, 
    6, 
    9, 
    10, 
    12, 
    13, 
    16, 
    17, 
    18, 
    19, 
    21, 
    22, 
    24, 
    25, 
    26, 
    27, 
    30, 
    31, 
    36, 
    37, 
    39, 
    40, 
    41, 
    47, 
    55, 
    56, 
    58, 
    59, 
    60, 
    66, 
    621, 
    622, 
    624
  ], 
  "node_row_ptr": [
    0, 
    1, 
    2, 
    3, 
    4, 
    5, 
    6, 
    7, 
    8, 
    9, 
    10, 
    11, 
    12, 
    13, 
    14, 
    15, 
    16, 
    17, 
    18, 
    19, 
    20, 
    23, 
    24, 
    25, 
    26, 
    27, 
    28, 
    29, 
    30, 
    33, 
    34, 
    35, 
    36, 
    37, 
    38, 
    39, 
    61, 
    62, 
    63, 
    64, 
    65, 
    66, 
    67, 
    68, 
    69, 
    73, 
    74, 
    75, 
    76, 
    77, 
    78, 
    79, 
    80, 
    81, 
    82, 
    83, 
    84, 
    85, 
    86, 
    87, 
    88, 
    89, 
    90, 
    91, 
    95, 
    96, 
    97, 
    98, 
    99, 
    100, 
    101, 
    102, 
    103, 
    104, 
    105, 
    106, 
    107, 
    108, 
    112, 
    113, 
    114, 
    115, 
    116, 
    117, 
    118, 
    119, 
    120, 
    121, 
    122, 
    123, 
    124, 
    128, 
    129, 
    130, 
    131, 
    132, 
    133, 
    134, 
    135, 
    136, 
    137, 
    138, 
    139, 
    140, 
    144, 
    145, 
    146, 
    147, 
    148, 
    149, 
    150, 
    151, 
    152, 
    153, 
    154, 
    155, 
    156, 
    160, 
    161, 
    162, 
    163, 
    164, 
    165, 
    166, 
    167, 
    168, 
    169, 
    170, 
    171, 
    172, 
    176, 
    177, 
    178, 
    179, 
    180, 
    181, 
    182, 
    183, 
    184, 
    185, 
    186, 
    187, 
    188, 
    192, 
    193, 
    194, 
    195, 
    196, 
    197, 
    198, 
    199, 
    200, 
    201, 
    202, 
    203, 
    204, 
    208, 
    209, 
    210, 
    211, 
    212, 
    213, 
    214, 
    215, 
    216, 
    217, 
    218, 
    219, 
    220, 
    224, 
    225, 
    226, 
    227, 
    228, 
    229, 
    230, 
    231, 
    232, 
    233, 
    234, 
    235, 
    236, 
    240, 
    241, 
    242, 
    243, 
    244, 
    245, 
    246, 
    247, 
    248, 
    249, 
    250, 
    251, 
    252, 
    256, 
    257, 
    258, 
    259, 
    260, 
    261, 
    262, 
    263, 
    264, 
    265, 
    266, 
    267, 
    268, 
    272, 
    273, 
    274, 
    275, 
    276, 
    277, 
    278, 
    279, 
    280, 
    281, 
    282, 
    283, 
    284, 
    288, 
    289, 
    290, 
    291, 
    292, 
    293, 
    294, 
    295, 
    296, 
    297, 
    298, 
    299, 
    300, 
    304, 
    305, 
    306, 
    307, 
    308, 
    309, 
    310, 
    311, 
    312, 
    313, 
    314, 
    315, 
    316, 
    320, 
    321, 
    322, 
    323, 
    324, 
    325, 
    326, 
    327, 
    328, 
    329, 
    330, 
    331, 
    332, 
    336, 
    337, 
    338, 
    339, 
    340, 
    341, 
    342, 
    343, 
    344, 
    345, 
    346, 
    347, 
    348, 
    352, 
    353, 
    354, 
    355, 
    356, 
    357, 
    358, 
    359, 
    360, 
    361, 
    362, 
    363, 
    364, 
    368, 
    369, 
    370, 
    371, 
    372, 
    373, 
    374, 
    375, 
    376, 
    377, 
    378, 
    379, 
    380, 
    384, 
    385, 
    386, 
    387, 
    388, 
    389, 
    390, 
    391, 
    392, 
    393, 
    394, 
    395, 
    396, 
    400, 
    401, 
    402, 
    403, 
    404, 
    405, 
    406, 
    407, 
    408, 
    409, 
    410, 
    411, 
    412, 
    416, 
    417, 
    418, 
    419, 
    420, 
    421, 
    422, 
    423, 
    424, 
    425, 
    426, 
    427, 
    428, 
    432, 
    433, 
    434, 
    435, 
    436, 
    437, 
    438, 
    439, 
    440, 
    441, 
    442, 
    443, 
    444, 
    448, 
    449, 
    450, 
    451, 
    452, 
    453, 
    454, 
    455, 
    456, 
    457, 
    458, 
    459, 
    460, 
    464, 
    465, 
    466, 
    467, 
    468, 
    469, 
    470, 
    471, 
    472, 
    473, 
    474, 
    475, 
    476, 
    480, 
    481, 
    482, 
    483, 
    484, 
    485, 
    486, 
    487, 
    488, 
    489, 
    490, 
    491, 
    492, 
    496, 
    497, 
    498, 
    499, 
    500, 
    501, 
    502, 
    503, 
    504, 
    505, 
    506, 
    507, 
    508, 
    512, 
    513, 
    514, 
    515, 
    516, 
    517, 
    518, 
    519, 
    520, 
    521, 
    522, 
    523, 
    524, 
    528, 
    529, 
    530, 
    531, 
    532, 
    533, 
    534, 
    535, 
    536, 
    537, 
    538, 
    539, 
    540, 
    544, 
    545, 
    546, 
    547, 
    548, 
    549, 
    550, 
    551, 
    552, 
    553, 
    554, 
    555, 
    556, 
    560, 
    561, 
    562, 
    563, 
    564, 
    565, 
    566, 
    567, 
    568, 
    569, 
    570, 
    571, 
    572, 
    576, 
    577, 
    578, 
    579, 
    580, 
    581, 
    582, 
    583, 
    584, 
    585, 
    586, 
    587, 
    588, 
    592, 
    593, 
    594, 
    595, 
    596, 
    597, 
    598, 
    599, 
    600, 
    601, 
    602, 
    603, 
    604, 
    608, 
    609, 
    610, 
    611, 
    612, 
    613, 
    614, 
    615, 
    616, 
    617, 
    618, 
    619, 
    620, 
    624, 
    625, 
    626, 
    627, 
    628, 
    629, 
    630, 
    631, 
    632, 
    633, 
    634, 
    635, 
    636, 
    640, 
    641, 
    642, 
    643, 
    644, 
    645, 
    646, 
    647, 
    648, 
    649, 
    650, 
    651, 
    652, 
    656, 
    657, 
    658, 
    659, 
    660, 
    661, 
    662, 
    663, 
    664, 
    665, 
    666, 
    667, 
    668, 
    672, 
    673, 
    674, 
    675, 
    676, 
    677, 
    678, 
    679, 
    680, 
    681, 
    682, 
    683, 
    684, 
    688, 
    689, 
    690, 
    691, 
    692, 
    693, 
    694, 
    695, 
    696, 
    697, 
    698, 
    699, 
    700, 
    704, 
    705, 
    706, 
    707, 
    708, 
    709, 
    710, 
    711, 
    712, 
    713, 
    714, 
    715, 
    716, 
    720, 
    721, 
    722, 
    723, 
    724, 
    725, 
    726, 
    727, 
    728, 
    729, 
    730, 
    731, 
    732, 
    736, 
    737, 
    738, 
    739, 
    740, 
    741, 
    742, 
    743, 
    744, 
    745, 
    746, 
    747, 
    748, 
    752, 
    753, 
    754, 
    755, 
    756, 
    757, 
    758, 
    759, 
    760, 
    761, 
    762, 
    763, 
    764, 
    768, 
    769, 
    770, 
    771, 
    772, 
    773, 
    774, 
    775, 
    776, 
    777, 
    778, 
    779, 
    780, 
    781, 
    782, 
    783, 
    784, 
    785
  ], 
  "heads": [[627, 0, 0]], 
  "attrs": {"mxnet_version": ["int", 10001]}
}